best_model_45.pth (torch_old, 130915 bytes, 26 tensors)

network.0.weight f4 [32, 3, 3, 3]
000000 11 b5 1e 3e 59 c7 26 3e 8c cf 52 bd 32 29 30 3e
       0.15498759 0.16286983 -0.051467463 0.17203215
000010 5b 83 02 bd 8a e6 39 3d 61 8b cf bd db 89 dd 3d
       -0.03186355 0.045385875 -0.10134006 0.108173095
000020 c0 62 14 3e 7d c4 22 be 3c 1c 11 3e 80 2f 88 3c
       0.14490795 -0.15895267 0.14170927 0.016624212
000030 4f e9 fc 3d c3 4a 34 3c c3 d7 ac 3d aa f4 37 bd
       0.123491876 0.011004153 0.08439591 -0.044911064
000040 7d 58 0b 3e 82 59 dd 3b c4 15 e6 bd f2 df 20 3d
       0.13607974 0.006755055 -0.1123462 0.03927607
000050 39 bf cd bd 52 e6 12 bd eb 3a a9 bd 7f 9e 01 3e
       -0.100462385 -0.03586418 -0.08263191 0.12658118
000060 95 c4 2b be 5e 05 bb bd 88 19 82 bd a3 be f8 bd
       -0.16774209 -0.09131883 -0.06352526 -0.12145736
000070 f3 82 35 3c 89 b4 46 be 69 c1 2b 3e 00 70 30 be
       0.011078584 -0.19404806 0.16772999 -0.17230225
000080 85 87 06 3e f0 0a bd 3c f2 32 9c bd 7f 5f cc 3d
       0.13137634 0.023076504 -0.076269045 0.09979152
000090 37 37 11 3d 82 59 20 3e 07 d1 a4 3c e0 e5 7d bd
       0.035453048 0.15659145 0.020119203 -0.061986804
0000a0 59 ba 5d 3d 7f 7d 7c bd fd af 97 3d 79 d7 28 3e
       0.054132793 -0.06164312 0.07406614 0.16488446
0000b0 84 1d ce 3d b8 57 b0 bd 22 53 cb 3d 59 a1 6f 3c
       0.100642234 -0.08610481 0.09927966 0.014625871
0000c0 c2 46 bc 3d 91 53 ff bd ad 6c 55 be ef f1 b2 bd
       0.091931835 -0.12467111 -0.20842238 -0.087375514
0000d0 86 61 23 be ff 0e 0f 3e c2 ca 46 3d d9 fe 94 3d
       -0.15955171 0.13970564 0.04853321 0.07275171
0000e0 95 75 95 3d 12 78 5d bb 7f 90 1f 3e 5e 7b 06 be
       0.072978176 -0.0033793491 0.15582465 -0.13132998
0000f0 9c 09 89 3c 0c 0f 0c be 83 56 7f 3d 0a 5b 92 bd
       0.016728215 -0.13677615 0.062338363 -0.071462706
000100 8b 98 4c 3d e2 0c f3 bc 37 e5 2d 3e ff ab e0 bd
       0.049950164 -0.029669229 0.1698197 -0.10970306
000110 b9 32 ca bd 96 6c de bd 94 66 30 3e e2 12 88 3d
       -0.09872956 -0.10860555 0.1722663 0.066442266
000120 67 89 39 3e 5d 9f 2c be dd 07 42 be a0 b2 13 be
       0.18118821 -0.16857667 -0.18948312 -0.14423609
000130 27 dd 0a be 73 7c a8 3d aa 04 97 3d 06 c1 1f 3e
       -0.13560925 0.08226862 0.073739365 0.15600976
000140 26 03 d4 bd 64 19 f8 bd aa 5b e1 3d 52 60 85 bd
       -0.10352163 -0.12114218 0.11003812 -0.06512512
000150 f6 6e f1 3d a1 22 87 bc 9b eb 19 3e 96 35 02 be
       0.11788742 -0.016496005 0.15031283 -0.12715754
000160 90 53 29 bd 58 92 b5 3d bd d4 13 3d 1a cd 6e bd
       -0.041339457 0.088658035 0.036091555 -0.05830107
000170 eb 42 f1 3d a1 22 fb 3d d7 89 f2 bd 23 68 89 bd
       0.11780342 0.12262464 -0.11842697 -0.06709316
000180 41 20 40 3e a4 f3 d1 bc 23 86 3a bd 83 b0 5b be
       0.18762304 -0.025628872 -0.04553808 -0.21454053
000190 25 14 1e be e9 3d 0e 3d 2d 57 6c bd 4d 97 15 be
       -0.15437372 0.03472701 -0.057700325 -0.14608498
0001a0 1e 4b 7b 3c fd 94 08 be cb 56 09 be 0e 29 b7 bd
       0.015337734 -0.13338085 -0.13412015 -0.089433774
0001b0 e7 b4 26 be 7f 8f 0e be a4 fb 43 3e e0 09 8b 3c
       -0.16279946 -0.13921927 0.19138962 0.016972482
0001c0 65 1c c0 3c 8d ed 3a be f5 96 1a be 3d 86 e8 bd
       0.02345104 -0.18254681 -0.15096648 -0.11353729
0001d0 13 68 d1 3c ad 2d 0f be f5 50 9b bd 99 b9 d4 bd
       0.025562322 -0.13982268 -0.07583801 -0.103869624
0001e0 1c 56 08 bc ca d0 b9 bd 85 99 2e bc b1 64 08 be
       -0.008321311 -0.090730265 -0.010656719 -0.1331966
0001f0 0b fc 22 be 74 10 db bd f0 77 f9 bc cf 90 01 be
       -0.1591646 -0.106964976 -0.030452698 -0.12652896
000200 c2 c0 35 3e a2 80 4b bd 1f 22 21 3e 59 c4 90 3d
       0.17749313 -0.04968322 0.15735672 0.070687
000210 da 29 19 be 7c 67 07 3e db de 2b bd 98 51 a4 bd
       -0.14957371 0.1322307 -0.04196058 -0.08023375
000220 03 bd 35 be 1d 3b 4b be 6d df 0f 3d 82 74 90 bd
       -0.17747883 -0.19846769 0.035125185 -0.07053472
000230 75 79 76 3d 02 ee 24 be e3 28 f0 3d 46 93 13 be
       0.060174424 -0.16106418 0.117265485 -0.14411649
000240 88 8d a9 bc 19 a2 40 3d 19 72 ec 3d c6 83 1e 3e
       -0.02069737 0.04702959 0.115452 0.15479955
000250 11 ef 2c 3e 41 14 12 be a9 9a 66 3d 8d 55 b6 bd
       0.16888072 -0.14265539 0.05629984 -0.08903036
000260 50 ed 16 bc 67 d0 00 be 87 98 3e 3e e6 df f6 bd
       -0.009211853 -0.12579499 0.18612872 -0.12054424
000270 1c 96 eb 3d bd 32 93 3d 3f 5d a4 3d bd 87 b2 bd
       0.115032405 0.07187412 0.08025598 -0.08717296
000280 49 f1 2f 3e d9 7c 6d 3d b0 e5 9d 3b 05 a2 40 be
       0.17181887 0.057980392 0.0048186406 -0.18811806
000290 f3 a5 82 3d 8e 83 1f bd ac f6 db bd 50 b8 24 3e
       0.063793086 -0.03894382 -0.10740408 0.16085935
0002a0 bb 09 be 3b 9b 78 05 be 19 d3 e5 bd 3a 3c a9 bc
       0.0057995 -0.13034289 -0.11221904 -0.020658601
0002b0 46 f9 bf 3d 6c 11 5d bd cb 0b e9 bd 43 89 99 bd
       0.09373717 -0.053971693 -0.113792025 -0.07496884
0002c0 63 4d 17 be ce cf 3c 3d cc 29 08 3e 9a ee 3a be
       -0.14775614 0.046096615 0.13297194 -0.18255082
0002d0 55 a7 3f 3d 7e 55 b1 3d d5 be 12 3d c4 30 81 bd
       0.04679044 0.086588845 0.035826523 -0.063081294
0002e0 08 4d bf 3d 3b 25 d7 3d 6c f5 85 3d 69 c9 16 bd
       0.093408644 0.10505148 0.06540951 -0.036813173
0002f0 86 bb 31 bd 53 1f f3 3c a6 42 d5 bc 87 a0 80 bd
       -0.043391727 0.029678022 -0.026032757 -0.06280618
000300 61 f5 09 3e 6c 6b 2e 3e 49 b0 b0 bc 6f b5 11 bd
       0.13472511 0.17033166 -0.021568434 -0.03557342
000310 a4 05 5e 3c 54 e1 3d bc 73 00 53 3d c6 dc 64 3d
       0.0135511495 -0.011589367 0.0515141 0.05587461
000320 f7 fd 33 be 6e 4c 8a bd c1 b7 24 3e 8e f9 90 3d
       -0.17577349 -0.06752859 0.16085722 0.07078849
000330 61 92 b7 bb bd e0 df bd 74 22 f0 bd 4b 45 2c be
       -0.0056021665 -0.10931537 -0.117253214 -0.16823308
000340 76 31 64 bd 58 1f 8f 3d ba 4e 00 3e 9c d6 bd 3d
       -0.055711232 0.069884 0.12530032 0.09269449
000350 a6 db 2a be 17 8f da bd 56 8d c4 bc ed 0f 42 3e
       -0.16685352 -0.106718235 -0.023993175 0.18951388
000360 49 d0 fa 3c 77 5a 0d bd 0f b9 96 3d cc fe 73 bd
       0.030616896 -0.034510102 0.07359516 -0.059569165
000370 3f ce b8 bd 25 b8 0a 3e 85 3e 9e bd e0 8a 87 bc
       -0.09023713 0.13546808 -0.077267684 -0.016545713
000380 60 e2 45 be 3a 0c 07 3e 19 fd 27 3e 9d b2 8d 3d
       -0.19324636 0.13188258 0.16405143 0.069188334
000390 06 bd 05 be 3c 20 1f be 59 ba 23 be b8 59 17 3e
       -0.13060388 -0.1553964 -0.15989055 0.14780319
0003a0 6d 37 d3 3d 0b 99 23 3e a5 ce cd 3d f8 1a 53 3d
       0.10313306 0.1597635 0.1004918 0.05153939
0003b0 65 c8 2f bc e7 fd 1f be 49 98 2a be 01 5c 49 be
       -0.01072893 -0.156242 -0.16659655 -0.19664003
0003c0 35 7f 92 3d fe 22 e1 bd cd df 5e bd 7c 0c ba bd
       0.07153169 -0.10993002 -0.05441265 -0.090844125
0003d0 3a 94 9d bc 5f cf 16 be 22 b4 e7 bd 7c 0e 94 3d
       -0.019235719 -0.14727543 -0.113136545 0.07229325
0003e0 6c ef 63 bd a8 7a f2 3d db d7 6e bd c2 11 12 be
       -0.055648252 0.11839801 -0.058311325 -0.14264587
0003f0 a1 3d 05 bc a3 d4 92 bd 77 11 6c bd e5 fc 27 be
       -0.008132369 -0.071694635 -0.057633843 -0.16405065

network.0.bias f4 [32]
000000 2d d9 b3 bd 95 8d 21 3e 34 f6 15 3e 62 09 7b 3d
       -0.08781657 0.15776666 0.146447 0.061288245
000010 03 ad 89 3c 02 45 28 be 08 0f b8 bc d8 ab 3b 3e
       0.016806131 -0.16432574 -0.022468105 0.18327272
000020 99 d9 2d 3d 40 72 82 3c 7d 65 2c bd ea 80 92 bd
       0.042443845 0.01592362 -0.042088974 -0.07153495
000030 40 48 f7 3d 40 de b5 3b d9 ee 00 3e 3d d5 1d bd
       0.120743275 0.005550176 0.12591113 -0.038533438
000040 00 2d af 3d 91 d8 b2 3d b5 80 05 3d d0 f0 f7 3d
       0.08553505 0.08732713 0.032593448 0.12106478
000050 cd 98 ed 3d 64 b1 39 3e 03 81 15 3e 80 30 4f bd
       0.1160141 0.18134075 0.14599995 -0.050583363
000060 55 37 25 be 53 5f 07 3d 9a 11 01 3a 11 6b 5c bd
       -0.16134389 0.033049893 0.00049235823 -0.053813044
000070 13 d3 26 bd b8 43 59 3c db ae 10 3e 44 d3 5f 3d
       -0.04072864 0.013260774 0.14129202 0.054644838

network.1.weight f4 [32]
000000 af be ac 3e 5b 18 9e 3e dd da bd 3e d5 6b aa 3e
       0.3373923 0.30877957 0.37081042 0.33285394
000010 4a d7 73 3f 80 7b 40 3f 18 8d 6e 3f b3 79 f4 3e
       0.9525038 0.75188446 0.9318404 0.477491
000020 70 6d 1a 3f 55 1c 2d 3f 9b 08 a4 3d f0 31 09 3f
       0.6032324 0.67621356 0.08009454 0.53591824
000030 e7 64 f1 3e 37 45 79 3e d3 18 22 3e 77 6c 73 3f
       0.47147295 0.2434281 0.15829782 0.9508738
000040 0c c2 62 3f 99 af 3e 3f a3 26 7d 3f 66 98 9b 3e
       0.8857734 0.7448669 0.9888708 0.30389708
000050 8b 12 dc 3e fe 8d 2f 3f a3 86 dc 3e c7 0d d2 3e
       0.42982897 0.6857604 0.4307147 0.41026136
000060 cb 7b c0 3d 5b 68 27 3f 61 8e 56 3e f4 7e 02 3f
       0.09398612 0.6539361 0.2095275 0.50974965
000070 70 be 7c 3f 67 79 ae 3e ed d4 a6 3e c6 70 48 3f
       0.98728085 0.34076998 0.32584324 0.7829708

network.1.bias f4 [32]
000000 a9 97 38 3b 06 f2 bc 3c 9b d0 28 3a a0 2f 30 3c
       0.0028166568 0.023064625 0.0006439776 0.010753542
000010 93 c5 c9 bc bb 99 57 3c 68 fd 3b bc 11 12 b5 3b
       -0.024630344 0.013159211 -0.011473991 0.0055258353
000020 ba 59 fb bb c3 57 1e bc 53 53 f6 3c 4b cd ad 3b
       -0.0076706083 -0.009664479 0.030069029 0.005304014
000030 75 de ea 3a ef 6c 88 3c f6 e5 8c 3a 07 6d 3d bc
       0.001791908 0.016653506 0.0010749686 -0.011561639
000040 5b 25 c0 bc 0e db 7a 3b 52 9b 23 3c aa b3 0c 3c
       -0.023455312 0.003827754 0.009985762 0.008587757
000050 59 ef 08 3b 1e 6f cc bc 87 69 13 bc c7 32 99 bb
       0.0020894615 -0.024955329 -0.008997328 -0.0046752426
000060 ec 55 14 3c 89 c6 06 3d 23 8c d2 bc 0f 49 6d 3b
       0.0090536885 0.03290418 -0.025701588 0.0036206876
000070 6d c4 3d bc dd 1a 12 bc 01 e4 cd 3c a8 93 47 bc
       -0.011582476 -0.0089175375 0.025133135 -0.0121812

network.1.running_mean f4 [32]
000000 ed 79 bd bf 76 87 fb 3e b5 9f 20 bf a5 22 be bf
       -1.4802834 0.49126786 -0.62743694 -1.4854323
000010 b8 ec 31 be 1b cc 15 40 89 16 1d 3f 97 00 a5 be
       -0.17375457 2.3405826 0.6136251 -0.32227013
000020 a8 65 0b be 62 c1 86 3f 90 78 2a c0 73 26 02 40
       -0.13612998 1.0527766 -2.6636086 2.0335968
000030 3c 69 02 3e 43 3a c1 bf 4a 54 d8 be e2 d3 90 3e
       0.12735456 -1.5095905 -0.42251807 0.28286654
000040 0c 75 8e 3f 9d c0 c3 3f 02 1b d4 bf 39 d3 94 3f
       1.112947 1.5293156 -1.6570742 1.162696
000050 36 7d 70 bf 86 ef c8 3f 24 d6 6b 3f 48 37 b8 bc
       -0.93941057 1.5698097 0.9212363 -0.022487298
000060 47 13 70 bf fa 97 b5 3f 9d 43 b5 3f 0d 8a d9 3f
       -0.93779415 1.4187005 1.4161259 1.6995255
000070 52 85 63 3f 9c a4 54 bf 3f 0f 6c bf 59 b8 56 40
       0.88875306 -0.83063674 -0.92210764 3.3550017

network.1.running_var f4 [32]
000000 44 3c c4 44 0e 50 79 43 2c 14 70 43 ff cd 23 45
       1569.8833 249.31271 240.0788 2620.8748
000010 cf 55 00 46 17 fb f5 43 57 1a 82 44 a4 68 93 43
       8213.452 491.96164 1040.8231 294.8175
000020 12 18 d0 44 1b b3 83 44 3b a9 16 44 25 ff 31 45
       1664.7522 1053.597 602.6442 2847.9465
000030 12 9d 21 46 cd b9 92 43 60 cb b0 43 c7 13 4b 45
       10343.268 293.45157 353.58887 3249.236
000040 1e a2 97 44 2f b4 76 44 7d 92 04 45 fa 66 8d 43
       1213.0662 986.81537 2121.1555 282.8045
000050 e3 15 37 45 07 e5 1d 45 bc 6a a9 44 9f 28 01 46
       2929.368 2526.3142 1355.3354 8266.155
000060 87 73 37 44 a1 8d 1f 45 a5 55 db 43 8d 13 85 44
       733.8051 2552.8518 438.6691 1064.611
000070 ad b8 81 45 13 96 fc 43 db 58 40 44 ad a5 9e 44
       4151.0845 505.17245 769.38837 1269.1774

network.3.weight f4 [32, 32, 3, 3]
000000 0d 29 df bc a0 c7 ea bb 74 7f 8c 3d a8 5c e2 bc
       -0.027241254 -0.0071649104 0.06860247 -0.027632073
000010 09 b2 54 bd 74 d4 03 bd d6 4c 49 bc c6 0e f4 bc
       -0.0519276 -0.032185033 -0.0122863855 -0.0297922
000020 7f cf f4 bc c8 a6 08 3d fd 88 a6 3c 00 97 d0 bb
       -0.029884098 0.03336218 0.020328993 -0.006365657
000030 40 62 27 bd 5b 44 98 bc 61 e2 eb bb 5f 41 06 bd
       -0.040865183 -0.018587282 -0.0071986173 -0.032777186
000040 7d a7 6e bd 7f 9e 13 bd 6a 67 e7 bc 94 aa 43 bc
       -0.058265198 -0.036039826 -0.028247554 -0.011942524
000050 64 90 2e bd b8 e2 03 3d 8e b8 91 bc b7 e0 b1 bc
       -0.04261817 0.032198638 -0.017788198 -0.021713598
000060 cd 02 58 3d 94 a0 35 3d 73 89 a0 3c 48 1e 80 bd
       0.052737046 0.044342592 0.01959679 -0.06255776
000070 7e 98 00 bd a6 68 86 bc fa d2 25 3d 1f c7 06 bc
       -0.031395428 -0.016407322 0.040484406 -0.008226185
000080 14 08 50 bd 3d 10 85 bc 69 b4 2e bd 3a fc e0 ba
       -0.050788954 -0.016243095 -0.04265252 -0.0017165013
000090 c5 2e 25 bc c9 26 4e 3d 45 15 b0 3c fe 4f 54 bc
       -0.0100819515 0.050329957 0.021494517 -0.012958525
0000a0 48 f9 17 bb 93 bc 0c bd 65 b1 c5 3c e5 f9 c2 3c
       -0.0023189355 -0.034359526 0.02413244 0.0238008
0000b0 ee ac 8a 3c 93 cb c6 bb 5a da 18 3d d2 26 06 bc
       0.016928162 -0.0060667484 0.03731761 -0.008187966
0000c0 92 65 c8 bc 9e 7a 50 3d 7f 03 65 3d 17 b7 60 3d
       -0.024462495 0.050898187 0.055911537 0.054862108
0000d0 07 3b 08 3d b8 77 76 bc 40 aa 98 3c 83 f3 18 3d
       0.033259418 -0.015043192 0.018635869 0.037341606
0000e0 37 3e 81 bd cf d4 9b bc de fb 15 bd 8c af 21 3c
       -0.06310695 -0.019022373 -0.036617152 0.009868514
0000f0 ad 17 9f 3c fe ff e2 bc 1c 5e 97 3b 1f af 1f 3d
       0.01942047 -0.027709957 0.004619373 0.038985368
000100 35 de e5 bc aa a9 3f bd 73 29 48 3d a6 13 9f bc
       -0.028060058 -0.046792664 0.048867654 -0.019418549
000110 a3 a7 02 ba ff 5f 9d 3c be f6 0e 3c 5b 8f 18 bd
       -0.0004984086 0.019210814 0.00872582 -0.03724609
000120 42 a0 c9 3c 90 0c c5 bc 31 da dd bc 48 4c 14 3d
       0.02461255 -0.024053842 -0.02708158 0.03620556
000130 f8 10 4b bc 40 3e 75 bc be 55 c6 bc 78 14 24 bd
       -0.012394182 -0.014968455 -0.024210807 -0.040058583
000140 5c 92 c1 bc 67 4c 68 bc 72 b9 38 3c 06 a8 45 bd
       -0.02362936 -0.014178372 0.011274682 -0.048255943
000150 ac d7 e4 bc f8 56 6f 3c 0e da 48 3c 53 f0 cd 3c
       -0.027934872 0.014608137 0.01225902 0.02513901
000160 a4 c7 07 bd b7 7b ea 3c f5 6f 30 3d 91 06 70 3d
       -0.033149377 0.028623445 0.04307552 0.058600012
000170 1e e4 80 bd 52 5c 79 bb bd 89 92 bd b1 0d 49 bd
       -0.0629351 -0.0038049412 -0.07155178 -0.049085323
000180 7a aa dc 3c 75 d5 37 bc a1 c4 c8 3c 08 ca 28 bd
       0.026936758 -0.011220326 0.024507822 -0.041208297
000190 dc 24 23 bc 9d c2 32 bd 22 2b 97 3c 73 92 f8 bc
       -0.009957518 -0.04364263 0.018453185 -0.03034327
0001a0 79 ba 64 bc b4 b5 25 bd 29 b3 8e 3c 34 08 85 3d
       -0.013960474 -0.04045649 0.017419415 0.06495705
0001b0 e9 26 93 3c 36 0f 16 bd 85 e6 7c 3c a6 43 3f 3a
       0.01796289 -0.0366356 0.0154358195 0.0007296152
0001c0 08 27 6a bd cb a1 31 3d 20 a9 68 3b 82 ec 8f 3b
       -0.05716613 0.04336719 0.0035501197 0.0043922076
0001d0 24 e5 d8 bc ba f8 12 bd da e4 71 3c aa dc 28 3b
       -0.02647645 -0.035881735 0.014764035 0.0025766292
0001e0 72 fc ba b8 7f 87 3a bd 14 47 6d 3d be 41 c9 bc
       -8.916193e-05 -0.045539375 0.057929114 -0.024567481
0001f0 9e 0d 41 bd 74 e9 00 bd 4b 45 2a 3d e6 10 14 3d
       -0.047132127 -0.03147264 0.04156999 0.036148928
000200 5f 6a 48 3c b8 26 66 bd 37 59 86 bc 02 80 52 bd
       0.012232392 -0.05618927 -0.016399963 -0.05139161
000210 e9 d1 0f bd ad 1e d3 3c e8 fb a5 3d 68 97 75 3d
       -0.035112295 0.025771463 0.08104688 0.059958845
000220 02 51 26 bd 40 15 c9 3c 9d 61 ed bc f0 9e bc 3c
       -0.0406046 0.024546266 -0.02897721 0.023025006
000230 49 81 29 3d 12 bf 3c 3d 3e 3e 38 3d 9a 2c 09 3d
       0.04138306 0.046080656 0.044981234 0.0334898
000240 0e 36 aa 3b 01 18 e3 3c 72 48 00 bd 7e 26 9f 3c
       0.005194432 0.027721407 -0.03131909 0.019427534
000250 c5 e1 1b bc 73 b5 92 bb 84 5b 2a bd 1c 1d 2a bc
       -0.009514277 -0.004477197 -0.041591182 -0.010382917
000260 b0 4c 00 bd ca 86 90 bb 62 84 1c bd ac 18 d9 bc
       -0.031323135 -0.0044105994 -0.038212188 -0.026501022
000270 08 3d 05 3c 69 9b 32 3d d3 f8 6a 3d 19 db 99 3c
       0.008132227 0.043605242 0.057366204 0.018781232
000280 03 f0 9f bc bb 45 42 bd 98 f7 ee 3c d9 ea 2a 3d
       -0.019523626 -0.04742978 0.029170796 0.041727874
000290 bf 63 1e bd 2d 94 13 3d 09 6f 3a 3d 86 b3 ca 3b
       -0.038669344 0.036029983 0.045516048 0.0061859516
0002a0 aa 75 d1 bc e0 df 4f 3d d3 a9 cf 3c 8d 2c 25 3d
       -0.025568802 0.050750613 0.025349533 0.04032569
0002b0 07 71 d5 bc 1d e8 2e 3d ef ca 10 bd d5 ec 67 3d
       -0.026054872 0.04270183 -0.035349783 0.056622345
0002c0 8a a2 92 bb 77 09 17 3d 4f 69 a9 3c f4 e1 21 3c
       -0.0044749426 0.03687426 0.020680098 0.009880532
0002d0 47 2b 44 bc 16 25 d0 3b e7 12 cb bc f5 96 41 bd
       -0.011973209 0.0063520772 -0.024789287 -0.047263104
0002e0 89 33 fd bc 37 58 e5 3c 32 74 e0 bc 0e 6b b9 3c
       -0.030908363 0.027996166 -0.027399156 0.022634055
0002f0 d2 f1 b8 bc 98 e3 27 3d 2d 31 dd 3c 08 c4 a4 3c
       -0.022576246 0.040988535 0.027000988 0.020113006
000300 56 32 b6 bc c3 c7 10 bd 1f 6c 71 3c a3 e5 c4 bc
       -0.022240799 -0.035346758 0.014735251 -0.02403528
000310 32 7b 6d 3d f2 93 5c bd 1f 59 f4 3c 96 6d 74 3d
       0.057978816 -0.05385203 0.029827652 0.05967482
000320 86 5d cf 3c 17 03 fe 39 d8 4e 14 bd c9 64 42 3d
       0.02531315 0.00048448957 -0.036208004 0.047459397
000330 5e 1d fd 3b d0 99 2d bd b8 76 6f 3d 89 99 83 bc
       0.007724448 -0.042383015 0.05846283 -0.016064422
000340 83 7a 03 3c bb 47 77 3d f1 1b 40 bd c6 aa 8f bd
       0.008024815 0.060371142 -0.046901647 -0.07014994
000350 f4 75 6e 3c b0 29 03 bb 71 95 4b 3c e6 92 65 bd
       0.014554489 -0.0020013861 0.012425766 -0.056048296
000360 11 93 23 3c ed e0 19 bc f4 4b 0e bd 00 f2 81 bd
       0.009983794 -0.009392005 -0.034740403 -0.06344986
000370 ea b1 09 3d d1 e9 32 3c 7d 39 ec bc a4 4c 54 3d
       0.033616938 0.010920004 -0.028836006 0.051830903
000380 ba ec 13 3d 45 b9 a8 3c 9c 44 46 bd 9e d7 06 b9
       0.036114432 0.020596156 -0.048405275 -0.0001285956
000390 85 b0 6a 3d 4e 76 2e 3d 42 8a 68 bd ff 56 80 3d
       0.05729725 0.042593293 -0.056772478 0.06266593
0003a0 fb 64 c4 3c 66 45 12 3d eb cc 8a 3d 00 64 3f 3d
       0.023973932 0.035710715 0.06777366 0.046726227
0003b0 a6 64 bc bc cd 50 75 3d 03 b0 41 bd 88 08 b4 3b
       -0.022997212 0.05989151 -0.047287 0.005494181
0003c0 b6 99 2c bd 21 9a 25 bc 1c bb f0 3b 62 d3 a1 bb
       -0.042138778 -0.010107548 0.007346524 -0.004938529
0003d0 1f f3 75 bb 03 7d ad 3c 3c 03 73 3d bd fe 9b 3c
       -0.0037528945 0.021177774 0.059329256 0.019042367
0003e0 a4 21 09 3d 37 88 01 3d 7e c3 60 3d e6 53 a4 3c
       0.033479348 0.031624045 0.054873936 0.020059537
0003f0 48 9f 8b 3c cb 1c 7e 3c eb 3a 1b bd 6a 9d 54 bd
       0.017043725 0.0155097945 -0.037897985 -0.051907934

network.3.bias f4 [32]
000000 6e d0 ee bc 99 57 2e bd f5 d3 1d 3d 39 96 0b bd
       -0.029152121 -0.04256401 0.038532216 -0.03407881
000010 5c a6 6f 3d 15 3b b6 bc 7b be be 3b 9e 45 67 3d
       0.058508262 -0.02224497 0.005821047 0.056462876
000020 f6 7a 02 bd d1 dd 87 bd 0a 01 8e 3c af fd 27 bd
       -0.031855546 -0.06634105 0.01733448 -0.041013416
000030 33 31 22 3d 69 d6 b2 3c be bb 54 3d 0f c2 24 bc
       0.0395977 0.021830754 0.051936857 -0.010056033
000040 24 71 18 bd 4c b1 41 bd dc 0b 2a bd 9f 0d 69 3d
       -0.037217274 -0.047288224 -0.041515216 0.056897756
000050 30 97 3b bc 64 94 83 3b 08 c9 38 bc fe dd 0b bd
       -0.01144962 0.0040154923 -0.011278398 -0.034147255
000060 f1 fc 51 3d 11 b9 b5 bc ef 9d f8 bc 70 34 60 3d
       0.051266614 -0.022182973 -0.030348746 0.05473751
000070 99 7b 09 3d 99 7c 15 3d 34 ce 35 3d 40 46 f8 bc
       0.033565138 0.03649578 0.044386104 -0.030306935

network.4.weight f4 [32]
000000 1f 2a 2b 3f 33 b7 d1 3e 09 8e 06 3f fc 2f 38 3f
       0.66861147 0.40960082 0.5256048 0.7194822
000010 95 f6 c4 3e 66 4b 76 3f c5 36 08 3f cc 90 47 3f
       0.38469377 0.962088 0.5320857 0.7795532
000020 9c db 0b 3f d8 6f d6 3d d9 95 86 3e 4a 65 ec 3d
       0.5463197 0.10470551 0.262862 0.11542757
000030 cd eb 0e 3f 36 9f 57 3e 57 66 28 3e bc 6a 1f 3f
       0.55828553 0.21056828 0.1644529 0.6227224
000040 ca 79 0d 3e 9d 8e 86 3e d0 4f 50 3e 72 f5 37 3f
       0.1381599 0.2628068 0.20342946 0.71858895
000050 8a c2 64 3f 70 0a 2d 3f e8 e6 84 3e 97 41 5b 3f
       0.89359343 0.6759405 0.25957417 0.8564696
000060 c2 b8 6e 3f 0a 72 ca 3e 93 b0 59 3f 98 1d 1d 3f
       0.9325067 0.3954013 0.85035056 0.6137328
000070 c2 f8 62 3e 1e 3d ca 3e 6b aa 32 3e ad 8b 2e 3f
       0.22165206 0.39499754 0.17447822 0.6818188

network.4.bias f4 [32]
000000 1a 0d e0 3b 6c 33 40 3d 8b 22 ce 3b 74 f4 2b bc
       0.0068374993 0.04692404 0.006290739 -0.010495294
000010 da 14 fc 3c c4 fd e7 bc 8f 6a f6 3b c5 03 3d bc
       0.030771662 -0.028319247 0.007520027 -0.011536543
000020 90 0d ba ba 5a 35 54 3c 49 2f 70 3c 7f 40 fc 3b
       -0.0014194716 0.012952173 0.014659711 0.007698118
000030 e3 8b 10 3c c8 13 71 3c df 8b ae 3c ea 8d 1d bc
       0.008822414 0.014714189 0.02130693 -0.0096163545
000040 c9 e0 59 3c 2d 40 21 ba 60 06 35 3c 7d cb 3a bc
       0.013298222 -0.00061512255 0.011048883 -0.011401054
000050 93 38 80 bc 54 b9 d1 3b c6 91 14 3d 12 41 38 3c
       -0.015651977 0.0064002667 0.036271833 0.011245983
000060 38 b0 6d 3b 68 53 93 3c bb 73 92 bb 81 da f5 bc
       0.0036268365 0.017984107 -0.0044693626 -0.030011417
000070 60 bf 59 3c 3d f9 8f 3c 85 1c 60 3d 43 a4 6f 3c
       0.013290256 0.0175749 0.0547147 0.014626565

network.4.running_mean f4 [32]
000000 aa a9 19 3e 81 d0 70 bc 2c 26 0e be a6 67 55 3c
       0.15006128 -0.014698149 -0.13881749 0.0130252
000010 e1 73 1d be d3 20 cb 3d 36 9f 6f 3e 8e ff 92 3d
       -0.15376236 0.0991837 0.23400578 0.071776494
000020 e1 f1 4e be e6 06 37 3b 14 c9 34 3e a3 21 1e 3e
       -0.20209457 0.0027927696 0.1765483 0.15442519
000030 6e b6 2d 3e df 25 8b 3e c2 ea a7 3e 44 5b 58 3d
       0.16964123 0.2717733 0.32796293 0.052821413
000040 50 1e 82 bc a1 1f fc bd 90 fa e5 bc 15 80 41 3e
       -0.015883595 -0.1231072 -0.02807358 0.18896516
000050 8e 4e dd 3d b7 13 6c be 15 70 cc 3d a5 09 f2 be
       0.10805999 -0.23054396 0.099823155 -0.47272983
000060 88 e3 ed be a2 27 19 3e a6 63 d7 3c 35 56 44 3e
       -0.46462655 0.14956525 0.026292633 0.1917351
000070 c7 f9 27 3e d2 a2 90 3e 8d 94 80 3d 78 17 bb 3e
       0.16403876 0.28249222 0.06278334 0.36541343

network.4.running_var f4 [32]
000000 17 e5 5a 3d ff 39 ef 3d 40 2d fd 3c 0e af 71 3d
       0.053441133 0.11680984 0.030905366 0.059004836
000010 e6 a6 21 3d 2e 37 40 3d 32 54 fa 3c 20 7c 8d 3d
       0.039465807 0.046927623 0.030557726 0.069084406
000020 4d de d9 3c 27 65 bd 3c f1 7f 8c 3c c4 0c ba 3c
       0.02659526 0.023119522 0.017150851 0.022711165
000030 df c9 4f 3d d3 fd 03 3d c6 56 0b 3d 8a 26 1f 3d
       0.05072963 0.032224488 0.0340183 0.038855113
000040 de cc 92 3c 4c 41 4c 3d 76 0e 98 3c c7 e3 2f 3d
       0.017919954 0.04986696 0.018561583 0.042941835
000050 7c c1 e4 3c 33 cb 55 3d 56 42 f4 3c ce a9 ee 3d
       0.027924292 0.05219574 0.029816788 0.116534814
000060 02 01 8b 3d bc e5 43 3d 1b 64 27 3e 75 94 26 3d
       0.067873016 0.047826514 0.16346781 0.040668923
000070 87 20 ae 3c 77 32 0a 3d 99 dc b2 3c f5 27 e4 3d
       0.021255745 0.033739533 0.021833705 0.11140434

network.6.weight f4 [32, 32, 3, 3]
000000 e8 ea c9 3c 5c ad 4f bd e9 a1 a7 3b bc 05 1f 3d
       0.024648145 -0.050702438 0.0051157367 0.038823828
000010 a8 a7 5e 3d 24 7c ba bb 55 4e 85 bc ff 17 cc 3a
       0.05435911 -0.0056910682 -0.016272703 0.0015571116
000020 55 bd d0 bc af cb 8f bc e2 49 74 3c 50 52 97 bc
       -0.025480906 -0.017553179 0.014910193 -0.018471867
000030 9b a6 63 3c 53 cb eb 3c 86 c0 bc bb f8 b8 40 bd
       0.013894702 0.028783476 -0.0057602553 -0.0470514
000040 ed 72 13 3c d7 a5 14 3d 87 23 61 bc 97 36 3e bc
       0.008999568 0.03629097 -0.013741381 -0.011609695
000050 29 a0 28 bd db 5e 31 bd d0 d9 d0 3b 91 1d 6d 3c
       -0.041168366 -0.04330335 0.0063736215 0.014472381
000060 36 26 97 3c 14 e2 e6 bc de 13 1b 3a 6e 13 0b bd
       0.018450838 -0.028183974 0.0005915741 -0.033954076
000070 30 22 79 3d 04 b4 2a 3d 1d f1 07 bd 3c 5a 44 bc
       0.06082362 0.041675583 -0.033188928 -0.011984404
000080 34 31 d5 bb 66 72 19 bc 26 c5 b9 3b 3c b3 0f bd
       -0.0065061096 -0.009365654 0.005669254 -0.03508304
000090 01 65 9d bc ab d6 3c bd 2d f2 f0 3b da 88 82 bd
       -0.019213201 -0.04610316 0.0073530884 -0.063737586
0000a0 24 ea b9 3c 60 ce 0c bd ac de 2c bd 30 23 37 bd
       0.022694655 -0.034376502 -0.042204544 -0.04471129
0000b0 9c 10 74 3c 1c 8f 1f bc 16 25 e1 3c cd fc 28 bd
       0.014896538 -0.00973871 0.027483504 -0.041256715
0000c0 0a 00 f5 3b 3b 29 b5 bc b6 a0 3c bd 70 d2 21 3d
       0.0074768113 -0.022114387 -0.046051703 0.03950733
0000d0 e4 9a 34 bd d1 60 09 bd ac 3d 5f bb 2f 6c b9 bc
       -0.044093028 -0.033539597 -0.003406386 -0.022634594
0000e0 47 65 f1 bc b4 82 f9 3c 18 dd e5 bc 21 b9 3e bd
       -0.029467238 0.030457832 -0.028059527 -0.04656327
0000f0 b5 30 18 3d 37 7b 0e 3c 62 44 94 bc ac 6f 13 ba
       0.037155826 0.008696369 -0.018099014 -0.00056242454
000100 18 7f 1f bc 87 58 37 3d 40 e9 c3 bc fd 79 9e 3c
       -0.009734891 0.04476216 -0.023914933 0.019345278
000110 74 bf 86 3d b0 a5 36 3d e8 c4 df 3c bc 37 40 3d
       0.065794855 0.044591606 0.027315572 0.046928152
000120 64 59 b9 3b a6 dc 78 bc 55 ed c3 bc fc bf 82 bd
       0.005656408 -0.015189325 -0.02391688 -0.06384274
000130 69 0b 2a 3d 56 93 40 bd 63 d9 b6 bc 90 08 f5 ba
       0.041514788 -0.04701551 -0.022320455 -0.0018694568
000140 03 af 56 bd 30 57 00 bd 37 73 8e bd a3 b6 58 bd
       -0.052412998 -0.03133315 -0.06955569 -0.05290855
000150 5a af 7d bd 5e 9e d6 bc 5a c4 05 bd 2b 85 60 3b
       -0.061934806 -0.026198562 -0.03265796 0.0034259062
000160 16 c5 01 3d cd 72 37 3c ff 38 b3 3c 3b 9e 2b 3d
       0.031682096 0.011196804 0.021877764 0.041898947
000170 f5 3c fa bc 03 83 89 bc 27 c4 0d 3d ac 1d 89 3d
       -0.030546645 -0.016786104 0.034610894 0.066951126
000180 de da fa 3a a3 7a dc 3b a9 6f 93 3c 79 b4 90 bd
       0.0019138714 0.0067284866 0.01799758 -0.070656724
000190 94 07 6d bd 6f 22 ae bc 4c a9 2f bd cc 55 33 bd
       -0.057868555 -0.021256654 -0.042886063 -0.043782994
0001a0 0a ff 1c bd 94 cc 36 3c e5 0f 77 3c 80 25 9d 3c
       -0.03832916 0.011157174 0.015079473 0.01918292
0001b0 c3 ad 38 bc 6d 83 fc bc 76 0d 83 3c dc c2 7d bd
       -0.011271897 -0.030824387 0.01599763 -0.06195341
0001c0 2d fa ad 3c 20 3e 5c 3c 76 20 97 bc cf 5e 31 3d
       0.021237457 0.013442546 -0.018448096 0.043303307
0001d0 66 9a be bc d7 28 e6 bc 9b 8a 5c 3d 77 ac d1 3c
       -0.023266982 -0.028095646 0.053843122 0.025594933
0001e0 a3 68 a1 3d 60 61 83 b9 e6 3e 07 bd 47 f0 15 3d
       0.07881286 -0.00025058817 -0.03301897 0.0366061
0001f0 ff 52 f3 3b ee 31 b6 3c 41 e4 50 bd 0c 42 37 3c
       0.0074256654 0.022240605 -0.05099893 0.01118518
000200 48 cc 8a bd 6b a1 6b 3c 1a 88 4c 3d 09 70 7d bc
       -0.06777245 0.014381747 0.049934484 -0.015468606
000210 f1 77 24 3d 92 8e 0b bb bc 19 35 3d da e6 85 3d
       0.040153448 -0.0021294695 0.044213995 0.06538172
000220 de 1a 05 bd 3c c5 3e bc 17 06 1c 3d a5 ab ef bc
       -0.032496326 -0.011643704 0.038091745 -0.029256651
000230 2b 51 65 bd 2f ca 25 3d 2d 8c 57 bd 94 37 ce bc
       -0.05598561 0.04047602 -0.052623916 -0.025172986
000240 9a 79 a7 3c 34 03 0a 3b 47 44 77 bd a3 28 f1 bc
       0.020443726 0.0021059038 -0.06036785 -0.029438322
000250 23 fc aa 3c 14 e2 d2 bc 2d cb a6 3c 4e 25 92 bc
       0.020872181 -0.025742568 0.020360554 -0.017840054
000260 b1 ab 32 bd 12 fb 26 bd ee 78 6f bb 1b 77 71 3d
       -0.04362077 -0.040766783 -0.0036540586 0.05895148
000270 c0 87 93 bc 77 1e 40 bd 7a a6 90 3c 74 68 19 3d
       -0.018009067 -0.046904054 0.017657507 0.03745313
000280 fc 59 ca 3b a6 c4 30 3d 61 b0 46 3d 33 a8 82 3d
       0.0061752778 0.04315629 0.04850805 0.06379738
000290 be a6 f1 bc ce d4 61 bd 6f 57 6f bd c9 69 27 bb
       -0.029498454 -0.055134587 -0.058432993 -0.002554523
0002a0 36 6f 3b bd 22 29 df 3c e9 26 62 3c 31 43 5f 3d
       -0.045760356 0.027241293 0.013803222 0.054507438
0002b0 3c fb 3a bd 8a c8 d2 bc 26 77 a6 bb f5 33 3e 3c
       -0.045649752 -0.02573039 -0.0050801216 0.011609067
0002c0 14 71 8d 3d ec 51 03 bd 01 49 ef 3c e2 00 2e bc
       0.069063336 -0.03206055 0.029209616 -0.010620328
0002d0 9a 90 e9 3b a0 28 e0 bc 6d b2 d8 bc 4f 6b b3 bc
       0.0071278336 -0.027363122 -0.026452268 -0.021901755
0002e0 4d 15 7c bd 51 96 54 bc 24 b9 af ba 27 e8 b1 bc
       -0.06154375 -0.012975291 -0.0013406617 -0.021717144
0002f0 05 2e 07 bd 6e ce 81 bd c9 5f 3e bc 66 30 75 bd
       -0.033002872 -0.063382015 -0.011619517 -0.05986061
000300 37 90 af 3c ec 6e 25 bd 2d c6 4a bc 90 68 74 bd
       0.021431072 -0.040388986 -0.01237635 -0.05967003
000310 85 51 ae bc 19 b4 86 bd 17 e0 f8 3b a7 d4 1f 3c
       -0.021279106 -0.0657732 0.007595073 0.00975529
000320 8e ad 7c bd 3f b1 8b 3c 74 a0 02 bc 8f 2f 82 bd
       -0.061688952 0.017052291 -0.007972825 -0.06356727
000330 24 c6 6d bd 58 42 22 3d ba 7c 33 bd 73 6f 4b 3d
       -0.05805029 0.03961405 -0.04382012 0.049666833
000340 ad 8c 58 3c 3c 2d 8c 3c d6 74 1d bd b8 22 94 3c
       0.0132171335 0.017111413 -0.0384415 0.018082961
000350 32 3b 7b 3c 77 c8 1f 3d 21 ca 1c bd 4b 72 69 bc
       0.0153339375 0.039009538 -0.038278703 -0.014248441
000360 83 93 a5 3b ec ab 06 bd 99 5e a9 3c 0c 2a e1 3c
       0.005052985 -0.0328788 0.02067499 0.02748587
000370 b1 a2 f7 3c e7 2d c5 bc a4 2f 68 3d dc 2e cf bc
       0.030228944 -0.02406974 0.05668606 -0.025290899
000380 74 de 25 3d e1 1f d5 bc 36 49 34 bd 85 ba fc 3c
       0.04049535 -0.026016178 -0.044015132 0.030850658
000390 b8 e2 98 bc 79 27 c9 3c 3a bb 7d 3d 5a a1 27 3d
       -0.018662795 0.024554955 0.06194613 0.04092536
0003a0 78 44 2e 3b 0a 4a 6c bd bd 8a 83 bc 52 74 62 bc
       0.0026591104 -0.057687797 -0.016057367 -0.013821678
0003b0 b2 44 9a bd d5 af 30 3d bb b9 16 3d 74 51 d8 bc
       -0.07532634 0.043136436 0.03679822 -0.026406027
0003c0 01 e5 92 bb bc ce f5 bc f3 1a 0a 3d aa e7 c0 3b
       -0.004482866 -0.030005805 0.033717107 0.0058869915
0003d0 39 0d 20 bc ec a7 b8 3c 7e ce cf bb de 10 94 3c
       -0.0097687775 0.022541009 -0.0063417545 0.01807445
0003e0 94 82 5a 3d f9 8a aa bc a6 40 3a bd 96 b3 9c 3c
       0.053347185 -0.02081822 -0.04547181 0.019128602
0003f0 54 e7 7a bd 5a 90 ed bb e6 5b 08 bd e8 25 34 3d
       -0.061255768 -0.007249874 -0.033290766 0.043981463

network.6.bias f4 [32]
000000 d9 93 76 3d 1a eb 78 3d 5d 3b 66 3d d7 d7 84 3c
       0.060199592 0.060771085 0.056208957 0.016216202
000010 d8 44 73 bd b0 b7 75 3c 0b 47 b7 3c 7d 95 0e 3c
       -0.059391826 0.014997408 0.022372743 0.008702633
000020 07 11 57 bd cf 3b 12 3d 14 33 5e 3c fb 25 23 3d
       -0.052506473 0.03570157 0.013561983 0.039831143
000030 53 b5 19 bc b4 4f 75 bd a4 1d 34 3d d2 ee 62 bd
       -0.00938161 -0.059890464 0.04397358 -0.055403538
000040 38 04 46 bd 5b f8 5a 3d db 62 6f bc cb 24 03 3d
       -0.048343867 0.053459506 -0.014610971 0.03201751
000050 67 dd d5 3c a4 d1 7a bb 2e e7 4a bc 91 eb e1 3c
       0.02610655 -0.0038271928 -0.012384219 0.027578147
000060 07 30 82 bc 73 f2 b4 3c 48 64 87 bc 50 3c 24 bd
       -0.015892042 0.022088265 -0.01652731 -0.04009658
000070 6a 89 28 bd 82 41 55 bd 8f 05 e0 bc 94 ae e2 bc
       -0.041146673 -0.052064426 -0.0273464 -0.027671136

network.7.weight f4 [32]
000000 9a f8 29 3f d6 3f fe 3e 69 44 71 3e 82 07 3f 3e
       0.6639496 0.49658078 0.23561253 0.18655208
000010 f3 e3 de 3e fc b6 29 3f 1b fd 06 3f a7 34 15 3f
       0.43533286 0.66294837 0.5272996 0.58283466
000020 63 45 86 3e 60 61 93 3e f7 b6 d6 3e 03 08 33 3f
       0.26224813 0.2878523 0.41936466 0.699341
000030 36 84 15 3e da 9d 2e 3f 45 b1 3e 3f 3c d4 d6 3d
       0.14601216 0.6820961 0.7448924 0.10489699
000040 ee b7 31 3f ea fa 18 3f 06 94 33 3f e4 d1 7a 3e
       0.6942128 0.59757864 0.7014774 0.2449413
000050 30 9a 44 3f 25 40 85 3e fc 2c 9f 3e 57 40 24 3f
       0.7679777 0.260255 0.31089008 0.64160675
000060 cf 33 c9 3e a1 3d 4f 3f 5e e8 f2 3e 6d ff 50 3e
       0.3929734 0.80953413 0.47442907 0.20409937
000070 7d 48 42 3e 3e f5 03 3f 42 0d 3c 3e 32 ea 68 3f
       0.18972965 0.51546085 0.18364432 0.90982354

network.7.bias f4 [32]
000000 9d e5 2c bb cf 84 a6 bc 43 8a e8 3c dc 8e e7 bb
       -0.0026381977 -0.020327 0.02838624 -0.0070665907
000010 95 ef b4 bb 28 68 7c bd 6a 4a 01 bd 79 eb b7 3c
       -0.0055217245 -0.06162277 -0.031565107 0.02245115
000020 20 05 92 bc b1 7e 94 bc d5 86 b0 bc 5b 31 5c bc
       -0.01782471 -0.018126817 -0.021548668 -0.013439502
000030 1c c3 31 3c bf 1d d0 bc 7b 7d 3f bd 46 a5 f1 3c
       0.01084974 -0.025404809 -0.046750527 0.029497754
000040 24 3d 9f 3c db 31 5c 3b 50 7c f2 bc 4a 51 39 3b
       0.019438334 0.0033599052 -0.029600292 0.0028277212
000050 bd a0 df bc a4 c5 de bb 8e 94 6d 3b ff 4e 68 bc
       -0.027298326 -0.006798463 0.0036251876 -0.01417899
000060 b9 99 20 3b 40 c3 08 bd ab a2 b7 3b 2c ff 36 3d
       0.0024505688 -0.03338933 0.0056041083 0.044676945
000070 c3 6d f1 3c 35 74 d5 bc 48 bd 45 3c dd 37 08 bd
       0.029471284 -0.026056388 0.012069054 -0.0332564

network.7.running_mean f4 [32]
000000 81 88 40 be 4b 9d 81 bd c6 b7 33 3e d4 76 af bd
       -0.18802072 -0.063288294 0.17550573 -0.085675865
000010 f8 cf 26 be 61 4e 2d be 9a 5e ff 3d 88 e1 c2 bd
       -0.16290271 -0.1692443 0.12469216 -0.09515673
000020 a4 39 c0 bd ec 91 23 bd 74 0d a7 3d 02 46 81 be
       -0.09385994 -0.039934084 0.08156863 -0.25248724
000030 9a f4 1f 3e 92 7c a5 bd fe a4 25 3e 97 5a 94 be
       0.15620652 -0.080804005 0.16176221 -0.28975365
000040 2a e6 6e be 5d 94 c9 bd b6 fa 63 be 99 67 23 3d
       -0.23329988 -0.09842751 -0.22263607 0.03989372
000050 4b 4f 89 3d 43 56 9f 3c 06 be c8 bd bf ef 42 3e
       0.06704577 0.019450312 -0.09801869 0.19036768
000060 e6 16 b1 3d 87 e3 a3 be 7f 87 4c be 7a d5 3f be
       0.08646946 -0.32009527 -0.19973563 -0.18733779
000070 a4 17 92 be 16 25 b8 be 3e e6 2e bc d3 44 d7 be
       -0.2853366 -0.35965794 -0.010675011 -0.42044696

network.7.running_var f4 [32]
000000 f6 0e 2f 3d b7 ac 4b 3d 51 79 be 3c 62 a1 e0 3c
       0.042738877 0.04972526 0.023251208 0.027420703
000010 30 15 ec 3c d3 dd 37 3d 37 bd 31 3d a2 80 aa 3d
       0.028818697 0.044889282 0.04339334 0.08325316
000020 36 90 58 3d cb 57 39 3d 8d 6f d2 3d 4c d1 86 3d
       0.052871905 0.04524974 0.10275183 0.06582889
000030 09 91 2f 3d 97 6d bd 3d 4c 1d 85 3e a4 98 ba 3c
       0.042862926 0.09249418 0.25998914 0.022777863
000040 76 c8 2e 3d ef 40 a1 3d 3a 9f 31 3d 42 f5 e4 3c
       0.042671643 0.07873713 0.04336474 0.02794898
000050 23 a7 b5 3d f6 55 00 3d 3c 15 f3 3c 32 58 b9 3d
       0.088697694 0.03133198 0.029673211 0.09050025
000060 a5 af 8f 3d 6c 03 ac 3d 0f c1 e4 3c 67 1a 0e 3d
       0.070159234 0.0839909 0.027924089 0.034693148
000070 34 f9 d3 3c 04 25 71 3d 58 cf 0c 3d 96 da 4e 3d
       0.025875665 0.05887319 0.034377426 0.05050143

network.10.weight f4 [32, 32, 3, 3]
000000 91 d6 c5 3c be d7 52 3c a3 29 66 bd 0a 07 3b 3c
       0.024150165 0.01286882 -0.05619205 0.011415252
000010 67 81 56 3d 60 59 91 bc 32 fa 42 bc bc 20 1f bd
       0.0523695 -0.017742813 -0.0119004715 -0.038849577
000020 6d a4 2d bd 35 e1 6e bc 95 95 0f 3d e8 c4 ee ba
       -0.042393137 -0.014580061 0.035054762 -0.0018216642
000030 3f d5 68 bc d7 73 02 3c d8 25 23 bd b8 c5 10 bd
       -0.014210998 0.007962189 -0.039831012 -0.03534481
000040 86 6c 40 3d 86 0e d0 3c e6 2d 36 3d 89 23 85 bb
       0.046978496 0.02539755 0.044477366 -0.004063074
000050 9a c8 11 3d 67 69 47 bd 3f 71 0f 3d 21 32 59 3c
       0.0355917 -0.048684504 0.03502011 0.013256581
000060 db 08 15 bd bc 11 4a bc 67 0b ba 3d ba b2 9b 3d
       -0.0363854 -0.01233333 0.09084206 0.07602449
000070 d3 21 f1 3c a3 6f 2f 3d d9 ea 8f bb 93 c4 44 3d
       0.029435074 0.042831074 -0.0043920097 0.04803903
000080 6c e4 4a 3d af 09 92 bc 09 32 07 3c 74 ee 9c 3d
       0.049534246 -0.017826883 0.008251675 0.07662669
000090 2c a5 43 3b ec 25 b3 bc 4b ec c6 bc 8d 08 2f 3b
       0.0029853089 -0.021868668 -0.024282595 0.0026707978
0000a0 a2 b9 f1 ba ce 4a 39 3d 79 59 1a 3d db 77 af bc
       -0.0018442164 0.045237355 0.037682984 -0.021419456
0000b0 0f a9 88 bc e0 a8 15 3c a6 94 33 3d dc 3d 2e bd
       -0.016682176 0.009134501 0.043842934 -0.042539462
0000c0 44 9f 0f 3a bb b9 7c 3c 5d 55 76 3c 66 1b 77 bc
       0.00054787495 0.015425141 0.015035001 -0.015082216
0000d0 8e 16 67 bc e7 e1 6a bc 27 ce c2 bb 35 97 ad bb
       -0.014104499 -0.014336086 -0.0059449854 -0.0052975663
0000e0 58 c0 43 3d a5 ab a9 bc 98 08 16 3c f3 7b 51 bc
       0.047790855 -0.02071173 0.009157322 -0.012785899
0000f0 08 dd 17 bc 52 5a 96 3c ba 1b 17 bd ed c1 2b bc
       -0.009269007 0.018353615 -0.036891676 -0.010483247
000100 13 4d d4 bb 25 b0 88 3c 2b 37 14 3d 55 c0 c3 3c
       -0.0064789145 0.016685555 0.036185425 0.023895422
000110 56 1c 13 bd 2c 2b d8 bc 3e ab 47 3c 2c c4 2d bd
       -0.035915695 -0.026387773 0.012186823 -0.042423412
000120 e4 30 6b 3c 47 b1 83 3c be b6 bc bb 17 2e 09 bb
       0.014354918 0.016075743 -0.0057590893 -0.0020932013
000130 b1 d7 2b bd 59 20 24 3d a2 04 e4 bc eb e8 93 bb
       -0.041953746 0.04006991 -0.02783424 -0.00451385
000140 cd d3 80 3d cc d9 44 bb 63 0d 1d 3c 06 84 23 3c
       0.06290398 -0.0030037044 0.009585711 0.009980207
000150 25 65 0b 3d bd 82 ae 3a 05 c3 21 bd fa c7 28 bc
       0.034032006 0.001331411 -0.039492626 -0.010301584
000160 b8 24 1d 3c 74 4f 21 3c ef 43 fc bc f6 ff 06 bd
       0.009591274 0.009845603 -0.030794112 -0.032958947
000170 f2 3c c9 3c e6 ee 55 3b 30 1d 65 3c 4f 4c 03 3d
       0.024565194 0.0032643615 0.01398401 0.032055195
000180 5e a8 02 3d 0f f7 d2 3c 59 4a 54 3c cd d6 a5 3c
       0.03189885 0.025752572 0.012957179 0.020244027
000190 8e 21 c7 3c df f1 4d bc 0a 7d bd 3c f1 96 3c bd
       0.024307992 -0.012569874 0.023130912 -0.046042386
0001a0 24 9b 5e 3d 93 60 ea bc 27 76 75 bc 5e f9 04 3d
       0.054347172 -0.028610503 -0.014981783 0.032464378
0001b0 5a 15 3b bd e5 0c bd 3c 26 ff 81 bd 4a 72 24 3d
       -0.04567466 0.023077438 -0.06347494 0.040148057
0001c0 34 96 b7 3d b3 c2 46 3d 42 3c 69 bd f3 8d bb 3c
       0.08964196 0.048525523 -0.056942232 0.022894835
0001d0 75 8e df bb e1 06 df bb 10 61 81 bd 99 b9 31 bd
       -0.006822402 -0.00680624 -0.06317341 -0.04338989
0001e0 dd 13 b1 3a 95 fd 7a 3d 5a 4f 2b bd 49 df 9a bd
       0.0013509948 0.06127699 -0.041823722 -0.075621195
0001f0 68 ad 82 bd 67 3f c0 3b 74 5d 02 bd 55 bd 39 bd
       -0.06380731 0.005866933 -0.031827405 -0.045346577
000200 be ab 2f b8 de 43 18 bd ca e7 24 3d 00 6e 19 bb
       -4.18832e-05 -0.0371741 0.040260114 -0.0023411512
000210 56 80 f3 3c c4 51 38 bd 6c ed 61 bd ed 75 54 bd
       0.029724281 -0.044999853 -0.055158064 -0.051870275
000220 4f bd aa 3c d9 9d 34 bd 29 ab cc 3d e8 c0 fd bc
       0.020842222 -0.044095848 0.09993584 -0.030975774
000230 e9 93 b3 bd be c3 08 3d 4e fc 03 ba ff 83 e4 3c
       -0.08768446 0.0333898 -0.000503485 0.027894972
000240 d8 06 ef 3c 3e bb 21 3d ea 2b 94 3c 99 97 ae 3c
       0.029178068 0.03948521 0.018087346 0.021312522
000250 55 a7 31 bc 2f 93 39 bc 0e 97 ac bc d0 b3 0c bd
       -0.010843118 -0.011326595 -0.021068122 -0.03435117
000260 29 d9 6f 3d 88 4d 94 3b 17 34 40 bd 04 ee 3d 3d
       0.05855671 0.004525844 -0.046924677 0.046369568
000270 08 e5 eb 3c 34 b6 f2 3c 41 1a ff 3c d2 c6 1a 3d
       0.028795734 0.029627897 0.031140449 0.037787266
000280 fe 54 80 3a c6 80 bd 3c 48 11 96 3c 87 cb e7 3c
       0.0009790955 0.023132693 0.018318787 0.028295292
000290 77 1e 06 3d 5d 39 6d bc 81 5a 3c bd 4d 97 ef 3c
       0.032743897 -0.0144790085 -0.04598475 0.02924695
0002a0 ad 42 a3 3c 9d 1a e0 bc 15 5b db bc 67 5b 00 bd
       0.019929254 -0.02735644 -0.02677683 -0.031337168
0002b0 91 91 dd 3c 4b f5 80 3c 88 66 00 bd 0b fa 4a bc
       0.02704695 0.015741965 -0.03134778 -0.012388716
0002c0 e8 c2 f6 3c fc 31 24 3d 6d cb e9 3c da 29 a9 3b
       0.030122235 0.04008673 0.028539384 0.00516246
0002d0 dd 34 10 bc e7 c0 62 3d 78 28 df 3c 5e 9c dc 3c
       -0.008801666 0.055359747 0.027240977 0.02693003
0002e0 eb b9 73 3d 71 1e 91 bc a7 04 88 3c ff 11 fb 3c
       0.059503477 -0.01771471 0.01660378 0.03064823
0002f0 6d 93 01 3d 43 89 4e bc 3e 89 75 3d ab a2 2b bd
       0.031634737 -0.012605968 0.059945337 -0.04190318
000300 b4 6b 54 3d 9b de 7d 3c 44 59 a4 3d c6 d5 07 3d
       0.051860526 0.015494968 0.080248386 0.033162855
000310 92 0c 86 bc 57 88 92 3d 1d 13 13 3c a4 b6 24 bd
       -0.016363416 0.07154911 0.008976725 -0.040213242
000320 b7 b5 cf 3c 16 20 96 bc a8 b4 91 bc 06 af 21 3d
       0.025355203 -0.018325847 -0.017786339 0.039473556
000330 ec e0 53 bc 5c 31 05 3d 0c 21 14 bd 63 8f f0 3c
       -0.0129320435 0.032517776 -0.03616433 0.029365247
000340 fa 03 12 bd 8b 9d 63 3b 9a 36 cf 3c fd 19 8a bc
       -0.035648324 0.0034731354 0.02529459 -0.016858095
000350 5d 50 76 3a 20 36 aa bc 15 c1 77 bd 5f 5d 38 bd
       0.00093961303 -0.020777762 -0.06048687 -0.04501092
000360 c1 45 ef bc b8 0b 20 bc 80 98 0d 3d e9 da 1a 3d
       -0.029208066 -0.009768419 0.034569263 0.037806425
000370 43 9e 9a 3d 34 f8 20 bd 02 27 2d bd c7 52 bf 3b
       0.07549717 -0.039299205 -0.04227353 0.0058387253
000380 61 2d b1 bc e6 06 11 3d 0b 2e cf 3c c7 90 9f bd
       -0.021628084 0.03540697 0.02529051 -0.07791286
000390 eb a6 35 bd 01 d1 17 bc 23 4b ae 3c 90 c8 01 3c
       -0.04434864 -0.009266139 0.021276062 0.007921353
0003a0 9e c6 35 3c 16 7d 2a 3d 2a 2f 95 bc 24 c5 92 bc
       0.011094717 0.041623197 -0.018210966 -0.01791627
0003b0 39 ab d3 3c cb 20 0d 3a 2b cb 9b bc 06 c9 a6 bc
       0.025838481 0.00053836097 -0.019017776 -0.020359527
0003c0 75 03 d5 3c 07 69 2a 3b 03 8a f7 bc de 2d 1f 3b
       0.026002625 0.0026002543 -0.030217176 0.0024288814
0003d0 82 d4 00 bb 9f 81 3b 3d 37 2e 6f bc 3f 7f 5d 3d
       -0.0019657915 0.045777913 -0.014598421 0.05407643
0003e0 ca d0 9e bc c9 39 49 3d 12 40 5f 3c 95 c6 b9 3c
       -0.019386668 0.049127374 0.013626115 0.0226777
0003f0 56 9e a9 bc 5d 6d 69 3d 20 0c 9d bd cf 92 5c 3b
       -0.020705383 0.056989063 -0.07668328 0.003365684

network.10.bias f4 [32]
000000 8a 08 8b ba a3 49 58 3c 93 cf 2f bd 53 c6 c5 bc
       -0.0010607403 0.01320115 -0.042922568 -0.02414242
000010 33 5d 24 bd 32 a3 5d bd 80 e3 07 3c 11 c1 a5 bb
       -0.040127944 -0.054110713 0.008293986 -0.0050584157
000020 41 d7 c4 3c 9f 53 73 3d b8 25 1b bd f5 a3 1b 3c
       0.024028422 0.05940592 -0.03787777 0.00949954
000030 bb 1b 6c bc 6a db bc 3c 4b d5 37 3d 87 1a b9 bc
       -0.014410908 0.023053844 0.044881146 -0.022595657
000040 fc d3 d8 3c 30 72 03 3d 60 5c da bc 1c 92 78 3b
       0.02646827 0.03209132 -0.026655376 0.0037928885
000050 fe 1e 31 3d f2 7f 3e bd f6 a8 cf bc b9 78 03 3d
       0.043242447 -0.046508737 -0.025349122 0.032097552
000060 af 73 5c bc df 31 8f bc 29 85 ad bb 1a ef 72 bd
       -0.0134553155 -0.017479835 -0.005295415 -0.059310056
000070 a1 24 c1 bc 97 14 c5 3c d0 6f 6b bd 28 0c 64 b9
       -0.023577036 0.02405767 -0.05747968 -0.00021748303

network.11.weight f4 [32]
000000 65 65 02 3f 3e b4 59 3f 35 48 50 3f 6b 39 29 3f
       0.50935966 0.8504065 0.8136018 0.6610324
000010 d8 0e 99 3f 8f 45 e1 3e be a1 8d 3f c0 8c c9 3e
       1.1957655 0.43998381 1.1064985 0.39365196
000020 28 76 6c 3f bb 00 af 3e b2 06 93 3f 0f 0d 9a 3f
       0.9236779 0.34180245 1.1486418 1.2035235
000030 63 e1 4b 3f 94 13 85 3f 70 e1 ce 3e 7e e1 2a 3f
       0.7964079 1.03966 0.4040637 0.66750324
000040 06 c6 8f 3e ab aa 97 3f 18 1a 0a 3f 8c 3b 16 3f
       0.28080767 1.1848959 0.53946066 0.5868461
000050 9d 66 9a 3f 57 7c 99 3e 79 c5 bd 3e cd 56 6f 3f
       1.2062565 0.29977676 0.37064722 0.9349182
000060 c4 08 40 3f 1a 2f d4 3e 5f 70 a0 3e 5a 8d bb 3e
       0.75013375 0.41442186 0.31335732 0.3663128
000070 bf 48 0f 3f 43 86 8e 3f 02 14 c9 3e d3 2b bd 3e
       0.55970377 1.1134723 0.39273077 0.36947498

network.11.bias f4 [32]
000000 a3 b1 02 3e a7 e6 f9 3d ad b6 27 3e fc 29 21 3e
       0.12763076 0.122021966 0.16378279 0.15738672
000010 1a 1c 14 3e 08 a8 25 3e db 95 33 3e da a4 18 3e
       0.14463845 0.1617738 0.17537634 0.14906636
000020 52 fc 37 3e 58 51 2c 3e 5e 45 20 3e 36 7b 32 3e
       0.17967346 0.16827905 0.15651461 0.17429814
000030 03 a1 0c 3e 28 01 11 3e b6 09 ee 3d 2c 2e 25 3e
       0.13733296 0.14160597 0.11622946 0.16130894
000040 f7 74 2b 3e a1 c9 02 3e 4d 84 2a 3e 7a 72 10 3e
       0.16743837 0.12772228 0.16652031 0.1410617
000050 48 ab 25 3e 52 44 20 3e dc 7e 30 3e 66 79 25 3e
       0.1617862 0.15651062 0.17235893 0.16159591
000060 a4 11 1b 3e 3a 8b 12 3e 5d f6 47 3e ea 23 1c 3e
       0.15143448 0.14310923 0.19527574 0.15248075
000070 a1 bc 29 3e 09 e2 19 3e ce 5b 10 3e 1f 89 2c 3e
       0.16575862 0.15027632 0.1409752 0.16849183

network.11.running_mean f4 [32]
000000 25 c8 3d 3e 61 37 69 3d a8 65 09 3d 7a 53 94 bc
       0.1853338 0.05693758 0.033544213 -0.018106211
000010 7f 6d 01 bc 08 a2 a6 bb 7f 1d 7a 3c 9d 17 0c 3e
       -0.007899641 -0.0050852336 0.0152658215 0.13680883
000020 0f cb c8 3d 79 93 d1 3d aa 27 ba 3c e1 2a a7 bd
       0.09804355 0.10233206 0.022723991 -0.081624754
000030 6d 20 3c 3e a5 95 21 bd 2c 2d 35 bd cf 9f 61 3d
       0.18371744 -0.039449353 -0.044232532 0.055084046
000040 e5 f2 65 3e 52 81 9a bd 8c 83 6e bd 31 44 4e 3d
       0.22455938 -0.07544197 -0.05823092 0.050358
000050 b5 1e 81 3d 4a 3c 85 3c 1b 17 4d 3c df 9d 56 3d
       0.06304685 0.0162641 0.012517716 0.05239665
000060 b9 7c 4d be cb c3 ec bd 15 80 2d 3e 62 dc 7f bc
       -0.20067109 -0.11560782 0.1694339 -0.015616508
000070 db c5 5e bd 60 bb 1d 3e 44 8d aa 3d a5 83 95 3b
       -0.05438791 0.15403509 0.083277255 0.0045628124

network.11.running_var f4 [32]
000000 06 5a be 3c ad 83 f9 3c a8 ed cb 3c 22 02 cf 3c
       0.023236286 0.030458296 0.024893597 0.025269572
000010 3f d4 05 3d 9e 7f a6 3c 40 b6 aa 3c 88 f5 b8 3c
       0.032673117 0.020324524 0.020838857 0.022578016
000020 39 82 e8 3c 91 d7 23 3d 09 1f 05 3d 78 3f dd 3c
       0.028382408 0.040000502 0.0325003 0.027007803
000030 d6 12 a5 3c c3 3e d3 3c dd f7 df 3c 03 8a 04 3d
       0.020150583 0.025786763 0.02733987 0.03235818
000040 27 d8 07 3d 51 93 85 3c 1a 5d a6 3c 30 55 91 3c
       0.033165123 0.016305597 0.020308066 0.017740816
000050 f0 68 69 3c ed f5 d2 3c 66 16 3a 3d 88 73 ff 3c
       0.01424621 0.025752032 0.045431517 0.03118302
000060 e1 b5 07 3d d1 76 02 3d cf 19 c3 3c 21 b7 02 3d
       0.033132438 0.031851593 0.023816017 0.031912927
000070 ad 6e 95 3c df c3 ae 3c 2e aa 0a 3d e0 e5 2f 3d
       0.01824125 0.021333633 0.033853702 0.042943835
