proj5/best_model_45.pth (torch_old, 373876 bytes, 22 tensors)

network.0.weight f4 [32, 3, 1, 1]
00000000: 165e e83e 6f1f f13e 1ff5 0bbe d172 063f
00000010: b889 0abe 3fda e73d e800 91be dcd6 ac3e
00000020: 3699 013f 897a dfbe 6e90 fa3e 2009 bd3d
00000030: 4086 dd3e 59f6 883d 3e17 8c3e 67b6 a9bd
00000040: ad45 e33e 0c98 ae3d 35a9 89be ca39 193e
00000050: 7074 87be b4ed 96bd c40b 72be 8a98 c23e
00000060: 6f01 eabe eb3a 88be 78b4 24be 4b23 b3be
00000070: 5db1 5f3d 7e3c 11bf f434 053f 259f ffbe
00000080: 05b3 e03e 896a c83d 638d 43be 2d2f b23e
00000090: bf7d c73d c1a7 ea3e 1e13 803d 665f 37be
000000a0: beed 1f3e 429f 22be 28ee 803e ccc9 033f
000000b0: 5b35 a73e 4577 85be 7d3a a73e b4a4 bb3d
000000c0: 9f9b 993e 9fb4 b0be 0221 11bf 77a7 63be
000000d0: b2fe e3be 6dc6 f13e d175 283e c9d0 763e
000000e0: d6b5 3b3e 92ad 19bc 30b5 e73e b3b1 d1be
000000f0: d874 353d 6590 c8be 6ad4 373e 1604 4ebe
00000100: 4afb 333e 17ae f3bd 740e f93e f1e9 aabe
00000110: d21d adbe e71d b0be d22d 053f 4f5a 433e
00000120: 67e5 0d3f be20 f4be f60d 13bf 8b28 e3be
00000130: 6c8c c6be c041 733e 12d8 5c3e f8ff f33e
00000140: 22c7 98be fe37 c6be eb8a a13e aaee 66be
00000150: d616 b63e 0f82 19be c468 a43e fb8d e0be
00000160: 8b72 97be 84bc 343e 88b9 fb3d fc17 19be
00000170: 5d29 ae3e f8a6 c93e 213a d6be b10a 9cbe
0.45384282 0.47094294 -0.13667725 0.52518946 -0.13529098 0.11320924 -0.28321004 0.33757675
0.50624406 -0.43648174 0.48938316 0.09230256 0.43266487 0.06687612 0.27361482 -0.082867436
0.44389096 0.085250944 -0.26886907 0.14963451 -0.26456022 -0.07369557 -0.236373 0.38007003
-0.4570422 -0.2660745 -0.16084468 -0.34987864 0.054612506 -0.5673293 0.52033925 -0.49926105
0.4388658 0.09785945 -0.19096904 0.34801617 0.09740781 0.4583111 0.06253646 -0.17907485
0.15618035 -0.15881065 0.251817 0.5147979 0.32657894 -0.26067558 0.3266181 0.09162274
0.30001542 -0.34512803 -0.5669099 -0.22231852 -0.44530255 0.472217 0.16451193 0.24103083
0.18331084 -0.009379761 0.45255423 -0.40955886 0.044300884 -0.39172664 0.17952123 -0.20118746
0.17576328 -0.118984394 0.4864384 -0.33381608 -0.33811814 -0.34397814 0.5202304 0.19077419
0.55428165 -0.4768123 -0.5744318 -0.4436687 -0.38779008 0.2375555 0.215668 0.47656226
-0.29839426 -0.38714594 0.31551298 -0.2255198 0.35564297 -0.1499102 0.3211118 -0.43858323
-0.29579577 0.17650038 0.12291247 -0.14950556 0.34015933 0.393852 -0.41841224 -0.30476907

network.0.bias f4 [32]
00000000: b552 063f aabf 47be 416d 54be 528c 12bf
00000010: b3a7 a6be c943 103e 470e a6bd 5663 d4be
00000020: 77bf 3b3c 25e2 c9be 220a fabe 1eeb a6be
00000030: 7020 01bf bfa2 bebe 1d2b 123f 38b2 cb3d
00000040: 1c38 323e 2f05 09bf 3bd0 c3be 0be6 33be
00000050: 80c8 9c3d 8df5 01bf 8a46 7fbe aa9e b4be
00000060: 31b4 363b 2cdd 5dbe 9947 25bd 1c1d cbbe
00000070: 6377 ccbe 8383 b1be 8e83 4bbe ebe1 ebbe
0.5246995 -0.19506708 -0.20744802 -0.5724536 -0.3254982 0.14088358 -0.08108192 -0.41482037
0.011459223 -0.39430347 -0.48835856 -0.32601255 -0.5044012 -0.3723354 0.57097036 0.09946102
0.17404217 -0.53523535 -0.38244805 -0.17568223 0.0765543 -0.50765306 -0.24929252 -0.352773
0.0027878399 -0.21666402 -0.040351484 -0.39670646 -0.39934835 -0.34670648 -0.19874403 -0.460708

network.2.weight f4 [32]
00000000: e37d 803f f957 803f 9749 7f3f ac2a 813f
00000010: 4e0b 803f d1d5 7f3f 8d53 7f3f b2d0 7f3f
00000020: 5006 7f3f 56c9 7e3f 8c42 803f 2142 803f
00000030: 2e12 7f3f 6bf5 7e3f 6ead 7f3f d6b0 803f
00000040: 4bc3 7f3f 289a 803f 82fc 7f3f 823e 803f
00000050: cdc0 803f b197 7e3f 7b31 803f c038 7f3f
00000060: 3b1a 7f3f e570 7f3f a233 803f 22b0 7e3f
00000070: 4433 803f 774b 7f3f 3af2 7f3f cb75 7f3f
1.0038418 1.0026847 0.99721664 1.0091147 1.000345 0.9993563 0.99736863 0.9992782
0.9961901 0.99525964 1.0020308 1.0020181 0.99637115 0.9959323 0.9987401 1.0053966
0.9990737 1.0047045 0.9999467 1.0019076 1.0058838 0.9945021 1.00151 0.9969597
0.996494 0.9978164 1.0015757 0.9948751 1.0015645 0.99724525 0.99978983 0.9978911

network.2.bias f4 [32]
00000000: d669 d23a af0a 013c c0eb a6bb a9b1 5ebb
00000010: bd3e 343b 795e e9ba 9cf6 6aba 3745 f9bb
00000020: efab 1ebb f22a 13bb 5954 12bb 12a1 4ebb
00000030: 94b6 67bb 789f 3fbb c37f cabb 8450 a5bb
00000040: a0bb d3ba a140 b0bb 13ad 84bb 23d6 f0b9
00000050: 5576 2b3a 9331 243b 4420 97b9 888e 9bbb
00000060: 5535 9a3b b603 e1b9 65e7 c83b 2286 293b
00000070: 7b79 58ba a856 2f39 5f31 1dba 48c2 0cbb
0.001605327 0.007876082 -0.0050940216 -0.0033980405 0.0027503215 -0.0017804644 -0.0008963139 -0.007607128
-0.0024211367 -0.0022456017 -0.0022328107 -0.003152911 -0.0035356628 -0.0029239338 -0.006179781 -0.0050449986
-0.0016153939 -0.005378798 -0.0040489524 -0.00045935911 0.0006540765 0.0025053963 -0.00028825004 -0.0047472157
0.0047060647 -0.0004291811 0.0061311 0.0025867303 -0.0008257848 0.00016721583 -0.00059964316 -0.0021478105

network.2.running_mean f4 [32]
00000000: a421 da41 7cc2 8541 e625 a741 90bd e140
00000010: b698 d041 2876 8041 1e7d 5441 e16d 7740
00000020: 46ac f441 6373 e941 fc0a 7241 379f 0d41
00000030: 1e0e ab41 db99 c640 7e29 1842 f46d d740
00000040: 0875 a541 d460 0c41 c641 a141 e3c9 4840
00000050: 32c6 c240 736c 9f40 7fe5 da40 a464 6241
00000060: 06fa 8741 57bd ab41 e625 6141 7f86 2941
00000070: bcca 8c41 3b0f a041 0fd4 2c41 664a 2e41
27.266426 16.719963 20.893505 7.05439 26.074566 16.057693 13.280546 3.8660815
30.584118 29.181341 15.127682 8.851371 21.381893 6.206281 38.04052 6.732172
20.682144 8.77364 20.157116 3.1373222 6.086694 4.9819884 6.8405147 14.14957
16.997082 21.467451 14.071753 10.595336 17.598991 20.007437 10.801772 10.893164

network.2.running_var f4 [32]
00000000: bcfb 0145 8ccf 4c44 2803 9244 851e 0e43
00000010: 6891 ec44 6f12 2a44 2789 1c43 e881 4542
00000020: 39cc 5044 95c7 4144 e5f9 2444 bc1a 5843
00000030: ed76 9b44 acbe 0942 6f24 7445 4c0e ee42
00000040: 1d8c cd43 f180 9742 17e6 8a44 e0ca 3042
00000050: 88ce 0642 0dbe af41 1f8a a042 21f5 0344
00000060: 578a 9b43 eaae c343 95d3 0b44 6d86 c142
00000070: 1eec 5844 6d95 aa43 282e a043 2381 0443
2079.7334 819.2429 1168.0986 142.11922 1892.544 680.288 156.53575 49.37686
835.191 775.11847 659.9046 216.10443 1243.7164 34.436203 3906.277 119.02792
411.09464 75.75184 1111.1903 44.19812 33.70169 21.967798 80.26977 527.83014
311.08078 391.36652 559.30597 96.76255 867.68933 341.1674 320.3606 132.50444

network.4.weight f4 [32, 32, 7, 7]
00000000: a80b b53c a6a5 96bb b803 953c 9434 003c
00000010: 972b babc 3842 973c 0e21 46bb 2517 23bc
00000020: 914b a8bc ec7b ddbc 92b8 a33b c2b6 0cbc
00000030: 31c3 123c 2beb 9bbc 70ba aa3c 0ac0 89bc
00000040: 6020 dfbb e95a b63b 271a 393c 091b ae3c
00000050: fe8a bb3c 8707 b3bc 315d 9c3b 398f 54bc
00000060: 9042 93bb 1b6c a0bc 0821 d23c 41d7 8bbc
00000070: 0249 423c 0766 f03b 736e eb3b aa12 82bc
00000080: 26d0 ae3c 5af9 f83b 4680 b23b e587 bcbc
00000090: e970 253c 936d 58bb e496 49bc 8766 aa3c
000000a0: e538 c03b 7ded 44bc 3443 70bc 3f34 c0ba
000000b0: 77f8 5e3c 8059 d5bb b76a 78bc a56e 00bc
000000c0: 0989 8ebc 2943 273c 333f 9e3c 88c1 e0bc
000000d0: 3706 a33b ae10 343c 41ee be3b 8f95 c0bb
000000e0: 150d 4e3c a971 663c 4531 e53b e177 c8bb
000000f0: 4be7 1ebc 384b 6b3b 4a24 18bb 6255 a5bb
00000100: a173 943c 2b12 a63c c78f 13bb 66e0 e2bb
00000110: ed7a ce3a 4fcf bbba 0525 953b 4626 d63b
00000120: ffaa ccbc d2db 1bbc a6c1 ab3c 5b40 4c3c
00000130: eb70 8139 bc0c 89bc 456c 85bc 5867 babc
00000140: 3b9c 26bc 663b 0b3c f289 a03c 4de3 653c
00000150: a536 b7bc 77a8 6cbc e1c9 4fbb 866e bf3c
00000160: 50bf ac3b 235b 71bb a672 573c d951 21bc
00000170: f57f 83bc a0e2 983c ca9d 1bbc 0390 93bb
00000180: 6b0e bcbc 18a4 993c a1d8 b63c c96a 343c
00000190: 762e 9abc 0a26 d6bc aeea adbc 2041 aa3c
000001a0: 6f7d 533c 0dfa bb3c 55e6 473c c515 b33b
000001b0: e831 eeba cb3c b1bc 3997 bcbc 47e5 c5bc
000001c0: 87d1 553c 7e1a 2cbc 7a8b febb 8f7d 74bc
000001d0: 0d9c c6bb 6dee 93bc 56aa 94bc e5cd df3b
000001e0: ad58 10bc f39d 563c 6202 37bc fe9d 9dbc
000001f0: 5de3 40bb 205e 4cbc 48c4 0dbc 3299 c7bc
00000200: 10af 4c3c f9e6 a7bc cb13 2b3c 7976 2f3c
00000210: 1d7f 903c ffd0 98bc b761 a33c cbe5 3cbc
00000220: 6ea3 083c 16f6 c43c 4d65 6dbb f15f cd3a
00000230: 8f7d dcbb 05ee b5bc bf64 453c e8a1 d7bc
00000240: 351c 5d3c 4ba8 953c 2fd3 bc3c 4197 0ebb
00000250: 4517 98bc 9604 c93b c027 603c 0e81 cabc
00000260: d473 5cbb 3aa1 5fbc bd1e 953a 5880 52bc
00000270: 19aa 1abc e814 22bc 6ceb d8bc 06e3 993c
00000280: 415f 9b3c 6e34 16b9 fd84 90b9 7f04 4bbc
00000290: 8700 bfbc 501d c9bc f078 c53b 26b5 8ebc
000002a0: 645f 8abc 6edc 34bb 3b26 36bc 0298 2abc
000002b0: 7004 c9ba 5ea6 9fbb d060 2cbc bbfc 45bc
000002c0: c7d4 b0bc eba9 a53c d7c4 5bbc d60e 913b
000002d0: c36c 40bc 6eed 9a3a 3050 cd3c 5f8d 493c
000002e0: 0759 a2bc c703 1d3c fcdc ca3c 2b5a a63b
000002f0: 1dc3 883c 5579 c33c 0f16 a2bb cbe1 8f3b
00000300: 2e0f a9bc 281a f1bb 6349 893c c17d 423c
00000310: 432d 5bbc 757c a2bc c926 aabc c8d2 d5bc
00000320: ee1d b0bc 1e1c 92bb a3c2 a33c 0eac 8c3b
00000330: e05d 9fbc e359 b2bc 7d21 283c 3ae3 b1bc
00000340: 96fc 62bb bdf0 463c fcf2 16bc abf2 31b9
00000350: 6758 86bb 53de b7bb 6375 7cbc 30f4 b8bc
00000360: 2244 a6bc 4302 71bc adda b83c 1ff4 6fbc
00000370: b5b0 9abc 7de8 c13b b34d 213c d4eb 743c
00000380: 0c2a 8e3c 640b 5b3c da87 d6bc 75bc 4339
00000390: 8cf3 703c a9b7 58b9 0557 48bc 1705 c43c
000003a0: 391e 09bc a9db 58bc 1bd7 c4bc 9993 a33a
000003b0: 02b1 373c c986 ee3b 279a 5b3b 4107 a7bc
000003c0: 046b bebc e2fa 9939 9568 b33c 2610 823c
000003d0: caf0 55bc 28d3 c6b9 b07d 8dbc ad26 64bc
000003e0: c7d6 783b 7cf6 5c3c 37dd b63c 9dc3 aabc
000003f0: 5621 933c f31d 8ebc 846f 003c 7f8f 9b3c
0.022100285 -0.0045973836 0.01819025 0.007825036 -0.022725863 0.018464193 -0.0030232104 -0.009954249
-0.020543845 -0.02703663 0.0049963677 -0.008588495 0.00895767 -0.019033035 0.020840853 -0.016815204
-0.0068092793 0.0055650366 0.011297739 0.021253126 0.022893425 -0.021854175 0.0047718515 -0.0129736
-0.004494019 -0.019582799 0.025650516 -0.017070414 0.011858227 0.0073363814 0.0071847974 -0.01587804
0.021339487 0.0075980844 0.0054474203 -0.023014018 0.010097721 -0.0033024296 -0.012304042 0.020800842
0.0058661574 -0.012019512 -0.01466446 -0.0014664008 0.013609043 -0.0065109134 -0.015162162 -0.00783888
-0.017399328 0.010208883 0.019317245 -0.027436033 0.004975106 0.010990305 0.005826742 -0.005877204
0.012576361 0.014065185 0.006994399 -0.0061178063 -0.009698699 0.0035902988 -0.002321499 -0.005045579
0.018121542 0.020272335 -0.0022516118 -0.006923723 0.0015753187 -0.001432875 0.004551532 0.0065353243
-0.024983881 -0.009512858 0.020966362 0.012466515 0.00024688928 -0.016729705 -0.016286978 -0.022754356
-0.010169084 0.008498048 0.019597027 0.0140312435 -0.022364924 -0.014444462 -0.0031706023 0.023368131
0.0052718297 -0.0036828003 0.013149893 -0.009846174 -0.016052226 0.01866275 -0.009498069 -0.0045032515
-0.022956094 0.018755004 0.022320094 0.011011788 -0.018820982 -0.026141185 -0.021230068 0.020783007
0.012908324 0.022946382 0.0122009115 0.0054652416 -0.0018172832 -0.021635434 -0.023021327 -0.02415718
0.0130504435 -0.010504363 -0.0077680917 -0.014922514 -0.006061083 -0.018058026 -0.018147629 0.0068299645
-0.008810204 0.0130991815 -0.011170002 -0.019240376 -0.0029432394 -0.012473613 -0.008652754 -0.024365041
0.01249291 -0.020495879 0.010441731 0.010709398 0.017638737 -0.018654345 0.019944055 -0.011529396
0.008339746 0.024043124 -0.003622371 0.0015668852 -0.006728835 -0.022208223 0.0120479455 -0.02632232
0.013495495 0.018268725 0.023049919 -0.0021757635 -0.018565783 0.00613458 0.013681352 -0.024719741
-0.0033638375 -0.013649279 0.0011376959 -0.012847982 -0.0094399685 -0.00989268 -0.026479445 0.018785011
0.018966319 -0.00014324646 -0.00027564904 -0.012391209 -0.023315681 -0.02455011 0.0060263798 -0.017420363
-0.016891189 -0.0027597207 -0.011117513 -0.010412218 -0.0015336405 -0.0048721274 -0.010521129 -0.012084181
-0.021585835 0.020222625 -0.0134136295 0.0044268174 -0.011744681 0.0011820027 0.02506265 0.012301772
-0.019817842 0.00958342 0.024763577 0.005076667 0.0166946 0.023861567 -0.0049464772 0.0043909303
-0.020637121 -0.0073578544 0.016758626 0.011870802 -0.01337749 -0.019834736 -0.020770447 -0.026101485
-0.021498647 -0.0044589182 0.019990271 0.0042929715 -0.019453943 -0.021771377 0.0102618905 -0.021714795
-0.0034635416 0.012142357 -0.009213205 -0.00016970436 -0.004099894 -0.00561122 -0.015408847 -0.022577375
-0.02029616 -0.014710012 0.02256521 -0.014645605 -0.018883089 0.0059176073 0.009845185 0.014948804
0.017354034 0.013369415 -0.026187826 0.00018666855 0.014706504 -0.00020667784 -0.012227778 0.023928208
-0.008369022 -0.013235965 -0.024028352 0.0012479901 0.011211636 0.0072792512 0.003350863 -0.020389201
-0.023244388 0.00029369356 0.021900455 0.01587684 -0.013057897 -0.00037922827 -0.017271847 -0.013925237
0.0037969814 0.013486501 0.02232228 -0.020845229 0.017960232 -0.017348265 0.007839087 0.018989323

network.4.bias f4 [32]
00000000: 1fca b4bc 0aaf 66bb a1fd 973c 36e6 f2bc
00000010: 0914 a33c 71e1 74bc 95cf b1bc dc71 4e3b
00000020: f9cb ea3b 4d37 8e3c c7c6 1f3c 1688 8a3c
00000030: 569e 503c cb71 ccb8 e7ae 253c 1eac c7bc
00000040: efae cdbc 56da 00bc 2497 94bc c472 853c
00000050: 04d7 303c 990e b13c 294f 7abc 16b5 a03c
00000060: f431 90bc 89eb 8dbc bcc2 eb3c a9f7 3cbb
00000070: d400 313b 1671 07bc 0ec4 9b3b ef4a d2bb
-0.022069035 -0.0035199546 0.018553557 -0.029650789 0.019907014 -0.014946328 -0.021705428 0.003150097
0.0071654287 0.017360354 0.009751982 0.016910594 0.012733063 -9.7486736e-05 0.010112501 -0.024374064
-0.025107829 -0.007864555 -0.018138476 0.016290076 0.010793451 0.021613406 -0.015277662 0.019617599
-0.017601945 -0.017324226 0.02877938 -0.002883414 0.002700855 -0.008266708 0.004753596 -0.006417624

network.6.weight f4 [32]
00000000: 9569 7e3f 11ae 803f 2800 803f 45ca 803f
00000010: 7f39 7f3f 175e 803f 0b82 803f 2810 803f
00000020: 9083 7e3f a78d 7f3f bb2e 803f 714b 803f
00000030: bd93 7f3f 7a96 7f3f ad8a 803f 9b94 7f3f
00000040: 9b49 803f 8b60 7e3f 43a9 803f 4105 803f
00000050: 157a 7f3f 4933 7f3f 4c52 803f ea71 803f
00000060: faf1 7e3f 876a 7f3f 3619 7f3f 358b 803f
00000070: 271c 803f c9ca 7f3f 33c8 7f3f 9213 7f3f
0.99379855 1.0053121 1.0000048 1.0061728 0.9969711 1.0028714 1.0039686 1.000493
0.994195 0.9982552 1.0014261 1.0023023 0.99834806 0.99838984 1.004232 0.9983613
1.0022463 0.9936606 1.0051655 1.0001603 0.9979566 0.9968763 1.0025115 1.0034764
0.99587977 0.9977192 0.99647844 1.0042483 1.0008591 0.999188 0.99914855 0.99639237

network.6.bias f4 [32]
00000000: 433c 01bc b302 5d3a 8fb7 09bc 2331 91bb
00000010: 2ade 233c 9984 b03b 1ade ddbb c2c3 a0bb
00000020: b6b4 41ba c6c4 1e3b be33 b23b 8783 9bbc
00000030: ca4a d83b a259 1a3b 073a 873b 7ba8 d3bb
00000040: 017d 9b3c 5598 d93b bbf6 80bc eb05 053c
00000050: 84d0 883b 786e 1e3c 30c2 c5bb c1b5 83bc
00000060: b70f 443b 2dcd 5ebb f1ea 323c 40aa 9ebb
00000070: 0eb9 183b 96d9 0cba 7e49 0ebc 2422 08bc
-0.007887903 0.0008430883 -0.00840558 -0.0044309064 0.0100016985 0.0053869006 -0.0067708613 -0.0049061486
-0.0007389294 0.0024226173 0.005438297 -0.018983616 0.0066007124 0.002355196 0.0041267904 -0.0064592934
0.018980505 0.006640474 -0.01574265 0.008119087 0.0041752476 0.0096698925 -0.006035112 -0.016077878
0.0029916593 -0.0033996806 0.010920272 -0.0048420727 0.002330366 -0.0005372999 -0.008684514 -0.008308921

network.6.running_mean f4 [32]
00000000: b9a8 5b3e 2e48 833e 2e49 a23e 7307 7a3e
00000010: 6816 bb3e a48d 943e e681 dd3e 67b9 4d3e
00000020: f6e0 d83e 9532 593e 44b4 b23e ae17 863e
00000030: f421 a43e 1305 aa3e f877 873e 3f59 5c3e
00000040: b515 663e b810 5a3e b7a7 a13e 6548 2b3f
00000050: bc55 b83e 6bf4 983e e6c0 b43e 4a4d f33e
00000060: 9259 6b3e 0ad0 a23e 0c77 a23e 0910 ab3e
00000070: 94a8 a33e 54b7 9c3e 8bd5 9d3e 946e e33e
0.21451081 0.25641006 0.31696457 0.24416904 0.36540532 0.29014313 0.43263167 0.20090257
0.42359132 0.21210702 0.34903157 0.2618994 0.32057154 0.33206996 0.26458716 0.2151842
0.22469218 0.2129544 0.3157327 0.6690734 0.3600291 0.29873976 0.3530342 0.47519904
0.22983387 0.31799346 0.3173145 0.3341067 0.31964552 0.30608618 0.30826983 0.44420302

network.6.running_var f4 [32]
00000000: 8e61 f23d d64a 3f3e b501 4f3e 568d 7a3e
00000010: 82cd 593e 628d 733e 58b4 8e3e 6633 163e
00000020: 73ba 653e be5f cf3d 34a7 9b3e 1c26 1c3e
00000030: 490d 6f3e 0d94 5d3e 8773 753e af89 363e
00000040: d5cc 0f3e cf17 eb3d a387 853e 9e25 9e3f
00000050: 3e2e df3e 19a2 753e e1be f03e affc 3e3f
00000060: b21a 113e c330 6b3e 77b6 f33d 0efa 9e3e
00000070: c97b a93e 3d62 493e 75a6 4a3e 33f2 ac3e
0.11835013 0.18680891 0.20215495 0.24467978 0.21269801 0.23784402 0.27871966 0.14668044
0.22434406 0.10125683 0.30401003 0.15248913 0.23344912 0.21638508 0.23969851 0.1782596
0.14042981 0.114791505 0.26080045 1.235523 0.43589967 0.23987617 0.4702063 0.74604315
0.1417034 0.2296782 0.11900037 0.31050152 0.33102253 0.19666381 0.19790061 0.33778533

network.8.weight f4 [32, 32, 5, 5]
00000000: 30f1 ee3c 8e50 ab3c 1c40 843b f139 00bc
00000010: 823f 80bc 7c05 753c e6f3 5a3b de50 dbbc
00000020: 65cb 30bc 5148 323b b453 ce3c 8835 9dbc
00000030: 5a82 7a3a 53e5 9abc 06ab 013d 1c85 57bc
00000040: 1fb4 abbb f98c ed3c 6294 f23c 81b3 933c
00000050: 77fa 213d e487 adbc 11ca 32bc 2089 163d
00000060: 0348 133d 9ce7 de3c e1fc 05bd e0fb 983b
00000070: 4da9 c53c 5386 1d3c aa4f e93a 0be8 cd3c
00000080: 2f6b c73c cf07 513c 5e39 ef3b b809 1abd
00000090: 4396 1dbd 5da0 503b 32a2 0fbd 1dc7 98bb
000000a0: 6500 75bc 375a 8abb 2fb0 9fbc 10e8 af3c
000000b0: 5009 fa3c b032 08bd ebd7 e13c a47e e6bc
000000c0: 7ef8 c3bc 7c31 533c c1b7 02bc eb45 dfbc
000000d0: 4d6e 9dbc 0418 163d dac9 c3bc b2b1 29bc
000000e0: b743 a5bc d5e9 6c3c 8165 9d3c 4a06 98bc
000000f0: 484e d3b9 82b9 bdbb 1567 e8bc 9a38 a8ba
00000100: 2b28 893a b794 ae3c 1da2 063d ca83 a2bc
00000110: 6bf6 2cbc 6d0e 67bc a00f e6bc 0fb3 803c
00000120: 957a 2c3c 5a93 0bbc 729f ab3c 4357 b8ba
00000130: 395b 743c 5f77 753c 27fa 10bd 4fc9 7ebb
00000140: 344e 9a3c 4592 5bbc d852 2fbc 48d7 573c
00000150: f93a 86bb ea18 98bc 1027 bb3c 7d31 6e3c
00000160: c827 563a 1df2 dbbc 4154 c5bc 33fe c1bb
00000170: d634 93ba 5c97 cb3c 1899 f039 982a 4e3b
00000180: b605 423c 974f fcbc 3ce4 aebb 33c2 273c
00000190: 972d 55bc a8f1 de3b 1978 4dbc 5d3a 18bd
000001a0: 6145 f4bc c119 493b 2b6d d5bc f945 023d
000001b0: c777 813c 303e 1f3d b8ed 61bb c665 e43c
000001c0: 5149 e9bc d482 853c af64 a53c 1e37 b53b
000001d0: b70b 5ebc c80a 5bbc e3d0 20bc c5ee ed3c
000001e0: 8be4 053c 0302 69bc 1524 42bc 6075 0f3b
000001f0: 9542 223c fcd0 0d3d 3ef4 ba3c 8c9c de3c
00000200: 114f 72bc c3f5 f93b b238 ba3c 91ee d83c
00000210: e5dd e2b9 e0dc d13c b743 f6bc 994b 25bd
00000220: ddd1 9c3b 9135 953c 80f2 7d3c d761 fdbc
00000230: b8ec fe3c 471e cdbc ab8d 033d d42a 0ebc
00000240: fc42 0c3d c8f6 b63c 4ec3 e83c 8cff 6f3b
00000250: 3116 f3bc 0f90 e8bc 9833 03bd 8b2b 80bc
00000260: f347 5cbc 8b14 f33b ed47 06bd bdbc fabc
00000270: cdba c2bb bf15 21bc 5b91 f8bb e606 eebc
00000280: cd6c 0fbd 637b f9bc bd7d 90bc 6f2d f7bb
00000290: 78d8 dabc 71cc 06bd ae30 92bb ac3e fd3c
000002a0: 4397 9f3c b825 1bbc e3f5 00bd 2a29 d53a
000002b0: 4dd4 0bbd 0793 ffbc 1ff7 ffb9 746e 403c
000002c0: ae11 74bc 58ad d9b7 e5f2 bc3a db3b 67bb
000002d0: 2155 5d3c 02a6 483c a1b2 b3bc 9638 b2bb
000002e0: f187 ffbc 9200 aabc a8c8 08bd 5e1c c4bc
000002f0: 632d c6bc 8056 23bb 29ca ac3a 9937 ca3b
00000300: 9887 ec3c 08b1 373c 75e3 313a de5a 9d3c
00000310: 1d24 5cbc d282 513b f7a8 663c 6750 fc3c
00000320: 43e3 e43c 554b 07bd 9a81 513a 9a90 e53c
00000330: fe30 363b a910 10bd e509 d63c a437 d8bc
00000340: 26fa cdbc 6fde ddbc 6016 0b3d ac25 fe3c
00000350: 293f 0dbc 7488 473c 9aea 303c dfe8 0bbd
00000360: 5bc3 9ebc 42cb 7abc d76d 9bb9 bae3 2cbc
00000370: 7574 b63c ebfd d1bc 6316 a9bc 4df1 fc39
00000380: 338b c3bb 1476 57bb 8d9d 75bc 1cb2 d03c
00000390: 55ba c23c c4c0 1f3c e356 613b ea7c 083d
000003a0: 016e 123b d6db 4cbc 14d8 a7bc e3b1 b93c
000003b0: 030b a6bc a098 5e3c 0bf6 b9bb bca5 9f3c
000003c0: 5209 593c dec6 c53c 75d1 19bb 49ff 5ebc
000003d0: 3f51 9b3b 70d5 59bc 488a 5f3c 4483 bcba
000003e0: 5a23 21bb aaf4 053d 3c27 cbbc 70a6 de3c
000003f0: 3782 253c 537f bebc d76f c83c 4c57 e3bb
0.029167742 0.020912435 0.0040359627 -0.007826314 -0.015655283 0.014954921 0.0033409535 -0.026771959
-0.010790681 0.0027203748 0.025186397 -0.019190565 0.0009556167 -0.018908178 0.03165724 -0.013154294
-0.005239978 0.028997885 0.02961177 0.01802993 0.039545503 -0.021182962 -0.010912434 0.036751866
0.035957348 0.02721005 -0.032711867 0.0046686977 0.02412858 0.009614545 0.0017800231 0.02513506
0.024343101 0.012758209 0.00730054 -0.037606925 -0.03847338 0.0031833865 -0.03506679 -0.004662408
-0.014953707 -0.00422218 -0.01949319 0.02147296 0.030522019 -0.033251464 0.027568778 -0.028136559
-0.023922201 0.012890216 -0.007978381 -0.02725502 -0.019217635 0.036643997 -0.023899961 -0.010357307
-0.02017389 0.014460047 0.01921344 -0.018557686 -0.0004030338 -0.0057899365 -0.028369466 -0.0012834251
0.0010464241 0.021311147 0.032869447 -0.019838233 -0.0105567975 -0.0141025605 -0.028083622 0.015710382
0.010527273 -0.008519018 0.020950053 -0.0014064092 0.014914327 0.014982074 -0.035394814 -0.0038877313
0.018836118 -0.013401573 -0.010700904 0.013173886 -0.0040963856 -0.018566567 0.022845775 0.014538166
0.000816938 -0.026848847 -0.024088027 -0.0059201955 -0.0011230956 0.024852447 0.0004589043 0.0031458493
0.011842182 -0.03079967 -0.0053372663 0.010239172 -0.013011358 0.00680371 -0.012540841 -0.037165035
-0.029818239 0.0030685517 -0.026053032 0.031805012 0.015804185 0.038877666 -0.0034473967 0.02788056
-0.028477343 0.016297735 0.020189611 0.005530252 -0.013552598 -0.01336927 -0.0098154275 0.029044518
0.008172165 -0.014221671 -0.011849423 0.002189003 0.00990357 0.03462313 0.022821542 0.027174257
-0.014789359 0.007628174 0.022732113 0.026480945 -0.00043271403 0.025618017 -0.030061586 -0.0403553
0.00478576 0.018214019 0.015499711 -0.030930443 0.031118736 -0.025038851 0.032117527 -0.008677203
0.03424357 0.022334471 0.028413441 0.0036620824 -0.029673668 -0.028389005 -0.032031626 -0.015645763
-0.013444888 0.0074182204 -0.032783438 -0.030607576 -0.0059426785 -0.009831845 -0.007585687 -0.029056024
-0.03501587 -0.030454343 -0.017638082 -0.007543258 -0.026714548 -0.032909814 -0.0044613695 0.030913673
0.019481307 -0.009469442 -0.031484496 0.0016262878 -0.034138013 -0.031198038 -0.0004882151 0.011745084
-0.014896793 -2.5949135e-05 0.001441565 -0.003528348 0.013509066 0.012246611 -0.021935763 -0.0054388745
-0.031192752 -0.020752225 -0.033394486 -0.023939308 -0.024191564 -0.0024923384 0.0013182807 0.0061711785
0.02887325 0.011211641 0.0006785908 0.019208368 -0.013436344 0.0031968844 0.01407837 0.030800058
0.027940398 -0.033030827 0.00079920294 0.028023053 0.0027800198 -0.03517214 0.026127765 -0.026393719
-0.025143694 -0.027083604 0.033956885 0.031023823 -0.008621016 0.012178529 0.010798121 -0.03415763
-0.019380262 -0.0153072495 -0.0002964574 -0.010552341 0.022272328 -0.025633773 -0.020640558 0.0004824497
-0.0059675216 -0.0032876777 -0.014991176 0.025475554 0.02377049 0.009750549 0.0034384064 0.033322252
0.00223434 -0.012503585 -0.020488776 0.02266783 -0.020268923 0.013586193 -0.0056750826 0.019488208
0.013246851 0.024142679 -0.0023470793 -0.013610669 0.00473991 -0.013295516 0.013643809 -0.0014382382
-0.0024587722 0.032704033 -0.024798982 0.027178973 0.010101846 -0.023254072 0.024467392 -0.006937897

network.8.bias f4 [32]
00000000: 1818 16bd 9e2c efbc 4fb9 a93b c54d a3bc
00000010: ef8c 43bd fff9 ca3b a20b abbc 08c4 ad3c
00000020: db75 6abd 35b0 d23b 09eb 1fbc c6d3 64bc
00000030: 00de d0bc 8b42 74bc b441 4fbd 87dc 4fbd
00000040: e7cf a83c 0fe1 6a3b e3fe 4a3c 0795 313c
00000050: 60b0 2cbc a7a9 fc3b d26b 79bc 82c4 623b
00000060: 4587 a83c 4bdd 403a 1698 e73a 305e 16bc
00000070: a596 4fbd f6e3 03bd bb05 e23a 7cff b4b9
-0.03664407 -0.02919608 0.005179561 -0.019934544 -0.047741827 0.0061943526 -0.02087957 0.021211639
-0.057241302 0.006429697 -0.009760627 -0.013966506 -0.025496483 -0.014908443 -0.05059977 -0.05074742
0.020606948 0.0035839712 0.012389871 0.010838754 -0.010540098 0.007710654 -0.01522346 0.003460199
0.020572314 0.0007357194 0.0017669227 -0.0091777295 -0.050680775 -0.032199822 0.001724414 -0.00034522626

network.10.weight f4 [32]
00000000: 4ac7 813f 87b7 813f 10bd 813f a248 823f
00000010: 08bf 813f 0f47 823f 69fe 823f 051b 813f
00000020: e0a1 823f 828a 813f f3e8 813f f072 803f
00000030: e1fd 823f 5032 823f d2b1 823f 8034 823f
00000040: c54f 813f 8629 823f d762 803f 3e0a 823f
00000050: 48be 803f db8c 823f 0f33 823f 9f99 813f
00000060: 7e73 813f 1e52 813f b428 823f d10c 823f
00000070: e9b7 823f 127f 813f 1375 813f ae74 823f
1.0138943 1.0134133 1.0135822 1.0178416 1.0136423 1.0177935 1.023389 1.0086371
1.020565 1.0120394 1.0149215 1.0035076 1.0233728 1.0171604 1.0210516 1.0172272
1.0102469 1.0168922 1.0030164 1.0159376 1.0058069 1.0199236 1.0171832 1.0125006
1.011337 1.0103185 1.0168672 1.0160161 1.0212375 1.0116904 1.0113853 1.0191858

network.10.bias f4 [32]
00000000: 19bf a23a 7d62 ca3b 96be 063b 9020 073c
00000010: 33d0 3f3a 43b8 0d3c 4973 303c c912 33b8
00000020: c4ab 923b 8d59 49ba 0e77 f73b ff27 c63a
00000030: 7654 803c 02a6 a03b 3713 0f3c 6919 c73b
00000040: 3575 3b3c 05cd 643b 5e60 14bc 3e55 313b
00000050: 7670 71bb 1d2b 733c 8d25 ffba 6616 9a3b
00000060: f9d6 fd3a c78f 763b b777 43ba 1373 073c
00000070: 54ee 363b cf9e 2a3c 0e14 3cbb e2f1 b938
0.0012416571 0.0061762915 0.0020560375 0.00824751 0.0007317096 0.008649888 0.010769674 -4.269442e-05
0.0044760425 -0.00076808856 0.007552034 0.0015118121 0.015665274 0.004902602 0.0087326085 0.006076027
0.011441519 0.003491224 -0.009056179 0.0027058865 -0.0036840714 0.014841822 -0.0019466147 0.004702377
0.0019366435 0.003762232 -0.00074564986 0.008267182 0.002791305 0.0104138395 -0.0028698477 8.8665416e-05

network.10.running_mean f4 [32]
00000000: 5288 623e b543 9f3e 61c6 b13e 48d4 913e
00000010: fc76 8c3e 8a4d 693e 7ac0 703e 9a44 9a3e
00000020: f46b 733e e029 7f3e 939c 8b3e ea38 823e
00000030: 4aea 8c3e 3e3b 923e d38c 9d3e d573 6d3e
00000040: 3850 a73e a4d5 7f3e 9df1 803e cef1 813e
00000050: 67cc 773e 4018 893e 2953 8b3e d8f6 6b3e
00000060: 8cfd 7e3e f5b1 6c3e 23b1 993e 492d 6c3e
00000070: cc9c 5c3e 10cd 833e f433 7d3e 48a9 743e
0.22122315 0.31106344 0.34721664 0.2848227 0.27434528 0.22783485 0.23510924 0.30130464
0.2377165 0.24918318 0.27267894 0.25434047 0.27522498 0.28560823 0.30771503 0.23188718
0.3267839 0.24983841 0.25184336 0.25379795 0.24199067 0.26776314 0.27211884 0.23043382
0.24901408 0.2311476 0.30017957 0.2306415 0.21544188 0.25742388 0.2472685 0.238927

network.10.running_var f4 [32]
00000000: 60cc 213e 36e1 a23e 3a4a 633e 9d44 933e
00000010: 2d72 723e f423 1b3e 98df 693e 1ea6 6c3e
00000020: 0b36 213e 3e71 4d3e ff70 043e 0fde 063e
00000030: aabd 193e 2b9d 393e c83e 6e3e ca22 3b3e
00000040: 25d0 1a3e bf0e 553e 080f 353e a503 8d3e
00000050: cb2d f83d 349d 003e 35f6 7d3e 81ea 0f3e
00000060: 2d31 5f3e 064e 103e 70d7 a83e cce5 063e
00000070: 0f4e 363e 2071 0e3e 83a1 393e 0a00 2b3e
0.15800619 0.31812447 0.22196284 0.28763285 0.23676367 0.15150434 0.228392 0.23110244
0.15743272 0.2006273 0.1293373 0.13170646 0.15013757 0.18126361 0.23266137 0.1827499
0.15118463 0.20806406 0.17681515 0.27541843 0.12118109 0.12559968 0.24800952 0.140543
0.21796103 0.14092264 0.32976866 0.13173598 0.17803214 0.13910341 0.18128018 0.16699234

network.13.weight f4 [32, 32, 3, 3]
00000000: 494e 8abc d719 0cbc 5e28 d03c 4e4c 393d
00000010: 7b0c 53bc 3cb0 083c 9952 7e3d 9100 62bd
00000020: 97d6 583d cc99 303d 6498 a8bc 8ec4 543d
00000030: 45cd 533d b68d 1b3d e4e2 3cbd 49d2 0a3c
00000040: db5c 633b 9ca4 293c 555d 593d c826 57bd
00000050: 545a 90bc cdf6 2abd 6fee a23c db0f 36bc
00000060: 196a 693d a8a9 453c 48e7 753d 2aa9 17bd
00000070: 59d5 b43c 498b 1d3d 9c63 dbba ca57 013d
00000080: 72e8 42bd c623 123d f997 313d 5673 d5bc
00000090: 7ea2 41bd 3d07 aebc 69fa 52bd 6603 df3c
000000a0: 7dbe a53c 21af 843d fd12 1ebc 0485 94bb
000000b0: 0b39 0b3d fee1 adbc 3fd4 173d ad0f a53b
000000c0: 0184 573d e958 3e3d 923e e83c 3aef ec3c
000000d0: 39e7 2a3d 1372 8c3c 3f6b 6b3d dd46 273d
000000e0: f89e 4f3d 969f 5a3d 3345 323d 5254 363c
000000f0: 3906 4d3d 6088 003d abab 12bd 91f0 85bc
00000100: 6e3d 103d 15b5 4cbd ba20 d83c 332d fbbc
00000110: e30b 68bc 433c 62bd 2007 38bd f648 323a
00000120: de91 4f3d 3dab fd3c ad49 203d a17e 2ebd
00000130: 1268 5b3d 6143 2abd 41b6 b13c dcba e5bc
00000140: fc0f 6bbd 2bec 363d b74f e43c c508 883d
00000150: 5c41 293d 3e87 4a3d 0999 c43b e4fc 2a3d
00000160: 1211 5c3d 288b ddbc 621c 57bb 409b 23ba
00000170: 91ac 023d d849 81bd b567 423c aa87 26bd
00000180: 4869 88bb 95a4 e9bc b084 c2bc c248 fc3c
00000190: da66 81bc 9a80 b3bc 6f07 c6bb 01f3 01bd
000001a0: ed72 92bc 980e aabb f722 4a3d 6163 063d
000001b0: ca38 54bd 610d 36bd e75b 31bd 187d d8bb
000001c0: cbbe 35bd 7029 573c 8db1 46b9 888c 02bd
000001d0: 24ac 28bb dffb 1e3d 79a1 37bc f715 4abd
000001e0: f789 683c 9e78 7dbc a878 95bc 6a1f 683d
000001f0: a9a3 203d 0eed 6d3d 2516 593d e006 20bd
00000200: 0ede 993c 1ffb 1f3b 0aa2 5d3d 73e2 efbc
00000210: 032a 32bd 6d45 2d3d e7fa 96bb 9248 2a3c
00000220: afa1 9b3c b905 b1bb 23b0 f63c c4c9 113c
00000230: 8ffb 8dbc 9046 4fbd f56f 633d 59c6 50bd
00000240: baf7 ea3b f602 04bd eff1 b0bc e0af 8ebc
00000250: 237f f1bb 0072 b8bb c9ca ca3b 5bc8 213d
00000260: 7960 8e3c a436 28bc bfbf 0ebc 210c a0ba
00000270: 78c4 e03c a143 ff3b be29 30bd 3532 973c
00000280: a92a ebbc ab53 ebbc 0645 553c 7e5e 40bd
00000290: 2d27 9abc c2ab 3e3d 321a 733d 9f50 0ebd
000002a0: 0f11 4dbd f4e4 46bd ad72 c33c aebe 49bd
000002b0: 5c82 a3bc bba2 53bd 1e79 4e3d a492 54bd
000002c0: 5ff6 563c 9fea 97bc 4912 2e3c dacc 443b
000002d0: 48ce 313d 6efa 63bd 8dd5 2d3d b5e3 7dbd
000002e0: 08f4 60bc 6335 c9bc 10eb 88bd 5a3c 623c
000002f0: 3163 0cbd dbb7 273d fa8d 24bd d3a1 45bd
00000300: 634b 5bbd 45f7 bebc 383c 61bd 0892 59bd
00000310: 4670 213d f541 bcba 1ea9 3f3d 486c 3b3c
00000320: b8e2 1dbc 96b2 11bc 390a 1c3d f466 9b3c
00000330: 3bd4 75bc 0858 343d 168e 97bc f134 adbc
00000340: bfac 213d 549a 48bc 20b0 723d 5fae 43bc
00000350: c1d4 3fbd db51 903b c334 af3c a260 c9bc
00000360: 33cc e53c 7402 803d c2f2 46bc ded9 aabc
00000370: d945 603d 3d12 023d db15 d2bc eda1 3c3b
00000380: d783 b73c 9517 023d 593f d7bc a00f dabc
00000390: 3a1a b23b 5b00 6abc 775b 6abc 5661 4d3c
000003a0: 34f3 873c d24c f13b 0ea7 3abd 9674 713d
000003b0: d32b bcbb 744e af3b a4e0 a63b 18c5 6b3c
000003c0: 7af5 823c e8d6 8b3c b042 3fbc 1175 4abd
000003d0: 03a8 293d 9165 343d 56f7 2f3d 9c28 84bc
000003e0: f692 593b 19ab d83c f719 4d3d bd5c 83bc
000003f0: 07a6 223d 3be5 3d3d 8b3d 203a 3103 cc3c
-0.016883032 -0.008551083 0.025409874 0.045238785 -0.012881394 0.008342799 0.06209049 -0.05517632
0.052939024 0.043115422 -0.020580478 0.05194526 0.051709432 0.037976943 -0.046114817 0.008472987
0.0034692797 0.010354187 0.053067524 -0.05252722 -0.017621197 -0.041739274 0.019889085 -0.011112179
0.05698595 0.012064375 0.06003502 -0.03702656 0.022074388 0.03846291 -0.001673806 0.031577863
-0.04758496 0.035678647 0.043357823 -0.026055973 -0.047274105 -0.021243686 -0.05150834 0.0272233
0.020232433 0.06478716 -0.009648082 -0.0045324583 0.033989947 -0.021225926 0.037067648 0.005037269
0.052616123 0.04647151 0.028350148 0.028922666 0.041724417 0.017144239 0.057475325 0.040839065
0.050688714 0.05337485 0.043523025 0.011128502 0.050054763 0.031380057 -0.035808247 -0.016350063
0.035214834 -0.04997738 0.026382793 -0.030661201 -0.01416299 -0.05523325 -0.04492867 0.0006801033
0.05067622 0.030965442 0.039132763 -0.04260123 0.053566046 -0.041568164 0.02169335 -0.028043203
-0.05738829 0.04465882 0.027870042 0.06642298 0.041322097 0.049445383 0.0059996885 0.04174508
0.053727217 -0.027043894 -0.0032823314 -0.00062410906 0.031902853 -0.06312913 0.011865546 -0.040656723
-0.004162941 -0.028520862 -0.023744911 0.030796412 -0.015796114 -0.021911908 -0.0060433666 -0.031725887
-0.017877067 -0.005189728 0.04934975 0.03280962 -0.05181197 -0.044446353 -0.043300536 -0.006606709
-0.044371407 0.013132438 -0.00018948894 -0.031872302 -0.002573737 0.03881442 -0.011207932 -0.049337354
0.01419305 -0.015470652 -0.01824601 0.056670584 0.03921858 0.0580874 0.052999634 -0.039069057
0.018782642 0.0024411154 0.05410961 -0.029282784 -0.043497097 0.042302538 -0.0046075466 0.010393279
0.018997995 -0.0054022935 0.030113285 0.008898202 -0.017331867 -0.050604403 0.055526692 -0.05097041
0.0071706446 -0.032229386 -0.021599738 -0.017417848 -0.007369892 -0.0056288242 0.0061887247 0.039497714
0.017379986 -0.010266934 -0.008712708 -0.0012210646 0.027437434 0.0077900444 -0.04300856 0.018456558
-0.028706865 -0.02872642 0.013016945 -0.046965115 -0.018817509 0.04655052 0.059351154 -0.034744855
-0.050065096 -0.04855819 0.023858393 -0.049254112 -0.019959621 -0.051668864 0.050408475 -0.05189766
0.013120263 -0.018544493 0.010624477 0.0030029328 0.043409616 -0.05565875 0.042439986 -0.061984736
-0.013730057 -0.02456159 -0.066854596 0.013808334 -0.034274284 0.040946823 -0.040174462 -0.04825003
-0.05353869 -0.023311267 -0.05498907 -0.053117782 0.039413713 -0.0014362918 0.046792142 0.0114393905
-0.0096365735 -0.008892676 0.038095687 0.01896999 -0.015004213 0.044029266 -0.018500369 -0.021143408
0.039471384 -0.012243826 0.059249997 -0.011943429 -0.046833757 0.004404289 0.021387463 -0.02458221
0.028051471 0.06250468 -0.012142839 -0.02085584 0.054754112 0.031755675 -0.025645187 0.0028783039
0.022401733 0.03176077 -0.026275324 -0.026618779 0.0054352554 -0.014282311 -0.0143040335 0.012535414
0.01659546 0.007363894 -0.045569472 0.058949076 -0.005742529 0.0053499285 0.005092697 0.0143902525
0.015986193 0.017070249 -0.011673614 -0.04942805 0.041419994 0.044042174 0.042960487 -0.016132645
0.0033199168 0.026448773 0.05007359 -0.016035432 0.039709117 0.04636119 0.0006112686 0.024903866

network.13.bias f4 [32]
00000000: eeee 633d 62c1 81bc 32b7 3c3d 8eb4 803c
00000010: f548 5ebd 2d61 1d3d 4e60 35bd 1ce8 f73c
00000020: 7e63 57bd 8c67 4a3d 6b5f f93c 15d7 c0bb
00000030: 47e2 29bd 2e2d 5e3d 8cf8 4f3c 5f77 e7bc
00000040: d7d0 8a3c 1946 4a3d 8904 8a3d bd69 1dbd
00000050: e919 383b 9403 e93c e53e 70bd 34e7 e83c
00000060: 030c 603d aab5 27bd f4c6 513d 15f8 3ebd
00000070: 2e92 39bd 8a87 82bc 8bee 00bb ec6e 9ebc
0.055647783 -0.015839282 0.046073146 0.015711095 -0.054268796 0.038422752 -0.044281296 0.030262046
-0.052585118 0.049415156 0.030441007 -0.005885015 -0.04147556 0.054242305 0.012693536 -0.028255163
0.016945286 0.049383257 0.06739146 -0.038430918 0.0028091616 0.028444089 -0.05865373 0.028430559
0.054698955 -0.040944733 0.051215127 -0.04662331 -0.045305423 -0.01593377 -0.0019673433 -0.019340001

network.16.weight f4 [8, 32, 3, 9]
00000000: 533f 91bc fbf8 12bd 61d4 24bc af2c 963c
00000010: 2496 e03c 83bb b13c b5f2 913c cd96 033c
00000020: 5e71 8a3c 7b23 0dbc 1db9 c63c 50f7 8c3b
00000030: 5034 f13c 3317 eebb 4733 5ebc 4d92 e63c
00000040: 4962 0f3d 7d3b 25bc 2af6 cdba 381b c33c
00000050: ae4a 21bd 6a45 00bb a8cb 53bd e06b 3fbd
00000060: 4fb3 02bc 7ddb 0a3c b872 13bc 98ce 1f3c
00000070: 7ceb e3bb 61f8 7cbc bb9a 0c3d 934c 0c3d
00000080: 61de 353c b9de e33c f798 a13c 464b 1db9
00000090: e7e9 05bd c47f 37bc a87a 3b3c 1b5e fcbc
000000a0: 6625 dd3c 285d 8b3c c9de dabc 8625 cc3b
000000b0: 7b15 883c cdec eebc 0786 09bd 35a8 e4bb
000000c0: 6557 cebc 9905 70bc 5a0b 153c 42b8 debc
000000d0: be02 25bd 76e9 cebc e1c2 e5bc b3ff 8b3c
000000e0: 2429 86bc 0595 593c 3f38 48bc edda 9cbc
000000f0: 9bdf d43c 5d1f 9cbc f1c2 a83a 512e c8bc
00000100: a9ab eebc abbe bcbb da9f 72bc 7a9e 88bc
00000110: 32e4 923c 70e8 10bb 6fb0 6a3c 52c2 9f3b
00000120: 4b3a 503b 787a 0dbd 0cfb 3dbc 8fa0 adbc
00000130: ba22 cf3c a82b 003d 5449 523c d166 053d
00000140: abcd adbc 48ef aa3c 6784 1e3b 8078 0cbb
00000150: 21eb d93a d4be 313c bd85 513c 2edb a8bc
00000160: a13a 843b b558 3bbc 9aa7 f33c fe8e 1b3d
00000170: ad63 093d ccdf a4bc 58d9 14bd 91a5 1ebc
00000180: c798 a13b 7538 f63c 7cdd 84bc 346a 8ebc
00000190: cecf 50ba 436d d53b 57e9 983b 985e 8c3c
000001a0: 8a9e 85bb 7397 28bd bcb6 7d3c fa9e 2cbb
000001b0: 80ec 12bd 0a5b 07bd 8649 7dbc d65a a3bc
000001c0: 98a8 dfbc 89f2 bfbc ed7b 2f3c b81e d83b
000001d0: 9f6a c0b9 c02d feba 6df3 053c cd0c 3f3b
000001e0: ccea 583b 377a 263b 224b 09bd 987e d23a
000001f0: 81f7 463c e8cf 373c 4752 143b e7ac 1abd
00000200: a5a6 06bd ac1c 87bc 1601 fa3c 7983 123d
00000210: 23c7 a9ba 826e 02bc 1b8e 143c e83f 533c
00000220: 2fb7 f53b 80e9 16bd 4216 d23a 0e89 50bd
00000230: b232 3abd d3fc 5e3b 6c33 4b3c 874e 6e3c
00000240: 3d4e 743c 7015 d53b d4cc 90bc dc2b 4fbc
00000250: 8bb4 90b9 0840 b4bc bcf7 03bd c47f 0d3b
00000260: a708 d8bc e0c6 db3a 6f92 12bc 18ad afbc
00000270: 03f6 6d3c 630e 413c 099d d6bc 98e9 d83c
00000280: b151 863c af78 06bc cbb7 03bd 587f b2bc
00000290: 2061 e2bc 0cfd eebb 7eff a33c 31ef dc3c
000002a0: 89fd e8bc 0c9b 1e3b 168f d23c 6c33 813c
000002b0: 5734 f7bc 731c 093c 6e50 77bc 158f 643c
000002c0: 1b6a 1dbc a29b c33c 5801 97bb be1c 4c3c
000002d0: a1c3 a43c 147f 8e3b c1d1 8ebc d701 9ebc
000002e0: e99b 033d 7bf9 c0bc af9a 14bc 6618 41bd
000002f0: e9d2 2bbd 8dbe b1bc 2777 8b3c 0de2 f0bc
00000300: f690 943b 6369 b8bc e17e 1d3c f79d f33c
00000310: b757 0d3c cca5 abbc d038 803c 2fc7 c2bc
00000320: 92e8 4e3c ce86 a33c 0019 cdba f7b4 aabc
00000330: 69f4 9f3c ee75 11bc ebfd ba3c 19a5 393c
00000340: 181a f43c 2924 983c a6bc b2bc 1315 86ba
00000350: 4ca0 6fbb 5889 10bd ee58 f0bb d90a 63bc
00000360: d90f 3c3c a4f3 7fbc e695 ebbc e79e d4bc
00000370: b836 0a3d 03cd 903c 7ecc c03b 2b68 923c
00000380: fb4a 9fbc ee29 233c ca62 8f3c 5dee 89bc
00000390: 8837 d33c 1747 a33c d203 ebbb 8850 cc3c
000003a0: de57 d03c f158 15bd 63d2 e3bb 2cd5 2c3c
000003b0: 55ec 3c3c d92b 49bc 881e c3bb ec30 e63c
000003c0: f798 c53c f7b6 193d d168 6d3b a30f fdba
000003d0: dd9c 0f3d 9382 ea3c 0525 c2bc 4a95 1ebd
000003e0: cdb6 b0bb b9bb 063c 702f 7b3c 0e82 01bd
000003f0: 4b08 cebc 42d2 73bc c57c e0bc 9359 9c3b
-0.01773039 -0.035881978 -0.010060401 0.018331854 0.027415343 0.021695858 0.017815927 0.008031559
0.01689976 -0.008614416 0.02425819 0.004301943 0.02944389 -0.007265949 -0.01356203 0.028145934
0.03500584 -0.010084984 -0.0015713621 0.02381669 -0.03937786 -0.0019572624 -0.051707894 -0.046733737
-0.007977321 0.008475182 -0.008999519 0.009753846 -0.006955562 -0.0154400775 0.03432725 0.034252714
0.011100383 0.027816163 0.01972626 -0.00015000728 -0.03269377 -0.011199895 0.011442818 -0.030806592
0.026995372 0.017012194 -0.02671756 0.006230059 0.016611805 -0.02916565 -0.033575084 -0.0069780597
-0.025188157 -0.014649772 0.009096945 -0.02718747 -0.04028582 -0.025257807 -0.028047027 0.0170897
-0.01637704 0.013280158 -0.012220441 -0.01914736 0.02598553 -0.019057924 0.001287548 -0.024436148
-0.029134588 -0.005760034 -0.014808619 -0.01667713 0.017931078 -0.00221112 0.014324292 0.0048754597
0.0031773027 -0.034540623 -0.011595499 -0.021194724 0.025285114 0.031291634 0.012834866 0.032568756
-0.021216234 0.020866051 0.0024187805 -0.0021434128 0.001662586 0.01084872 0.012788233 -0.020612326
0.0040353094 -0.011434724 0.029743005 0.037978165 0.033542324 -0.020126246 -0.036340088 -0.009683029
0.0049315426 0.030056218 -0.016218893 -0.017384626 -0.00079655356 0.006513269 0.004666488 0.01713495
-0.004077737 -0.04116006 0.015485462 -0.0026339875 -0.035870075 -0.033045806 -0.015459424 -0.019940775
-0.027302071 -0.02343108 0.010710699 0.006595459 -0.00036700533 -0.0019392297 0.008175713 0.0029151917
0.0033098934 0.0025402436 -0.033518918 0.0016059456 0.0121439705 0.011219002 0.002263205 -0.03776255
-0.03287377 -0.016493164 0.030518096 0.035769913 -0.0012953024 -0.007960917 0.009067084 0.012893654
0.007498644 -0.036843777 0.0016028362 -0.050911956 -0.045458503 0.0034025207 0.012402397 0.01454509
0.014911232 0.0065027997 -0.017675795 -0.012644734 -0.00027600335 -0.022003189 -0.03221868 0.0021591047
-0.026371313 0.0016767643 -0.008946045 -0.021444842 0.014523986 0.011783215 -0.026197927 0.026478574
0.016396375 -0.008207484 -0.0321577 -0.021789238 -0.027634203 -0.007293349 0.02001929 0.026969524
-0.028441207 0.0024201302 0.025702994 0.01577159 -0.030176325 0.008368599 -0.0150948595 0.013950129
-0.009607817 0.023877922 -0.0046083145 0.012458025 0.020112814 0.004348645 -0.017434003 -0.019287987
0.03213111 -0.023556462 -0.009070083 -0.04714241 -0.041949186 -0.021697307 0.01702459 -0.029404664
0.0045338823 -0.02251119 0.00961277 0.02973841 0.00862687 -0.020953082 0.01565209 -0.023776619
0.012628691 0.01996174 -0.0015647709 -0.020838244 0.019525724 -0.008878214 0.022826156 0.011330866
0.029797599 0.01857193 -0.02181847 -0.0010229669 -0.003656405 -0.03528723 -0.00733482 -0.013857567
0.011478388 -0.015622053 -0.028758 -0.025954677 0.03374359 0.017675882 0.0058837524 0.017871937
-0.019444933 0.009958727 0.017503161 -0.016837293 0.025783315 0.01993136 -0.0071720863 0.024940744
0.025432523 -0.036461774 -0.0069525703 0.010548871 0.011530955 -0.0122785205 -0.0059545673 0.0280995
0.02412079 0.037528004 0.0036225806 -0.0019307028 0.035061706 0.028626716 -0.023699293 -0.038716592
-0.0053928853 0.0082234675 0.015331134 -0.03161817 -0.025150439 -0.014881672 -0.027403245 0.0047714203

network.16.bias f4 [8]
00000000: 2480 5dbc 1a96 04bc 8ee3 ecbb c1c5 e4bc
00000010: 5cf4 e63b f333 b83c be95 efbc 9142 a63b
-0.013519321 -0.008092428 -0.007229275 -0.027926328 0.007048173 0.022485709 -0.029246207 0.0050738533
