proj5/best_model_45_v0p28.pth (torch_old, 373778 bytes, 22 tensors)

network.0.weight f4 [32, 3, 1, 1]
0	0x3ee6be84	0.45067227
1	0x3ef3789b	0.47552952
2	0xbe0797a2	-0.13241437
3	0x3f06382d	0.5242947
4	0xbe0f6664	-0.14003903
5	0x3de287a0	0.11061025
6	0xbe8edf0b	-0.27904543
7	0x3eadd974	0.33954966
8	0x3f033b69	0.5126253
9	0xbede3b8b	-0.43404803
10	0x3efbdf44	0.49193776
11	0x3dc2b9a3	0.09508064
12	0x3edbade3	0.42906103
13	0x3d827953	0.06370797
14	0x3e8e248d	0.2776226
15	0xbd977345	-0.07395033
16	0x3ee53b06	0.44771594
17	0x3db6dfef	0.08929431
18	0xbe8d59ef	-0.27607676
19	0x3e24f21b	0.16107981
20	0xbe795b9d	-0.24351354
21	0xbd967330	-0.07346189
22	0xbe7422aa	-0.23841348
23	0x3ec1ce9d	0.37852946
24	0xbeed6474	-0.46365702
25	0xbe86fd5e	-0.2636518
26	0xbe1dd77d	-0.15414234
27	0xbeb42fc7	-0.351927
28	0x3d749ae9	0.059718046
29	0xbf1075a8	-0.5642953
30	0x3f05ed15	0.52314883
31	0xbf00b551	-0.50276667
32	0x3edd3a78	0.4320867
33	0x3dc9f590	0.098612905
34	0xbe3f1458	-0.18660104
35	0x3eb5e7e4	0.3552848
36	0x3dd04c3a	0.10170789
37	0x3ee84b9d	0.45370188
38	0x3d8115d4	0.063029915
39	0xbe374919	-0.17898978
40	0x3e2699e0	0.16269636
41	0xbe13dc43	-0.14439492
42	0x3e8033d1	0.25039533
43	0x3f02fe7c	0.5116956
44	0x3ea8fc06	0.3300478
45	0xbe842d20	-0.25815678
46	0x3ea78b9f	0.3272371
47	0x3dcd9f78	0.10040182
48	0x3ea09007	0.31359884
49	0xbea8f240	-0.32997322
50	0xbf0f81b2	-0.56057274
51	0xbe64c0ae	-0.22339126
52	0xbee4b719	-0.44670942
53	0x3ef11399	0.47085264
54	0x3e2aea41	0.16690923
55	0x3e6f5c38	0.23375022
56	0x3e3d5289	0.18488516
57	0xbbc549fc	-0.0060207825
58	0x3eea2b42	0.45736128
59	0xbecf2d46	-0.40464228
60	0x3d3fd4fc	0.046833977
61	0xbecb9fcd	-0.39770356
62	0x3e30b8c3	0.17257981
63	0xbe4e53a0	-0.20149088
64	0x3e369e65	0.1783386
65	0xbde4a6ff	-0.111646645
66	0x3efb07aa	0.49029285
67	0xbea8cc14	-0.329682
68	0xbeab5df9	-0.33470133
69	0xbead5ca5	-0.33859745
70	0x3f06858a	0.52547514
71	0x3e46462b	0.19362704
72	0x3f0fe3d8	0.56207037
73	0xbeefd965	-0.46845546
74	0xbf119acc	-0.56876826
75	0xbee07dd4	-0.43846
76	0xbec4c899	-0.38434294
77	0x3e781c35	0.2422951
78	0x3e552df2	0.20818308
79	0x3ef0af18	0.47008586
80	0xbe9c5e9e	-0.30540937
81	0xbec4988e	-0.3839764
82	0x3ea39f18	0.31957316
83	0xbe5f5c39	-0.21812524
84	0x3eb3c9e1	0.3511496
85	0xbe1ba01e	-0.15197799
86	0x3ea61778	0.3243978
87	0xbee355a9	-0.4440129
88	0xbe9b0a2b	-0.30281195
89	0x3e2c76de	0.16842219
90	0x3e029ca9	0.12755074
91	0xbe1eced9	-0.15508594
92	0x3ea78464	0.32718194
93	0x3ecc68f8	0.39923835
94	0xbed3d666	-0.4137451
95	0xbe99113d	-0.29895964

network.0.bias f4 [32]
0	0x3f075a1b	0.52871865
1	0xbe476e29	-0.19475617
2	0xbe51d174	-0.20490056
3	0xbf0eea64	-0.558264
4	0xbea911ef	-0.33021495
5	0x3e1450ba	0.1448392
6	0xbd9be437	-0.07611888
7	0xbed6df8c	-0.41967428
8	0x3c67a525	0.014138495
9	0xbec97e2e	-0.3935408
10	0xbefaf5c4	-0.4901563
11	0xbea2be6a	-0.317859
12	0xbf01749d	-0.5056856
13	0xbebbd4ab	-0.3668569
14	0x3f13c345	0.5771983
15	0x3ddee5cc	0.10883674
16	0x3e34a394	0.17640525
17	0xbf09e31d	-0.5386217
18	0xbec1b722	-0.37835032
19	0xbe4616b2	-0.19344595
20	0x3db6a9f6	0.08919136
21	0xbf029f94	-0.51024747
22	0xbe7dd893	-0.24789648
23	0xbeb10224	-0.34571946
24	0x3adea475	0.0016986268
25	0xbe5bfbbd	-0.2148275
26	0xbd227d2a	-0.039670147
27	0xbec864e4	-0.39139473
28	0xbecb1878	-0.39667106
29	0xbeac6e5e	-0.33677953
30	0xbe492b5a	-0.19645444
31	0xbee9aea2	-0.45641047

network.1.weight f4 [32]
0	0x3f80260e	1.0011613
1	0x3f80871d	1.0041233
2	0x3f7e8562	0.99422276
3	0x3f801f39	1.0009528
4	0x3f7fedbd	0.99972135
5	0x3f7eea83	0.99576586
6	0x3f805a81	1.002762
7	0x3f7e6d05	0.993851
8	0x3f805c2a	1.0028126
9	0x3f7f29f2	0.9967338
10	0x3f800c29	1.0003711
11	0x3f7f82e8	0.9980912
12	0x3f7ee3a4	0.995661
13	0x3f8054c9	1.0025874
14	0x3f7f2097	0.99659103
15	0x3f805d3f	1.0028456
16	0x3f805d0f	1.0028399
17	0x3f819718	1.0124235
18	0x3f8024bd	1.0011212
19	0x3f7f1fa6	0.99657667
20	0x3f810864	1.0080686
21	0x3f7ff238	0.9997897
22	0x3f801cff	1.0008849
23	0x3f7ed132	0.99537957
24	0x3f805dbd	1.0028607
25	0x3f7fd2e1	0.9993115
26	0x3f7ecb58	0.9952903
27	0x3f80518e	1.0024889
28	0x3f802d4d	1.0013825
29	0x3f80dc8b	1.0067304
30	0x3f7f70a6	0.9978126
31	0x3f806e14	1.0033593

network.1.bias f4 [32]
0	0xbb2e7254	-0.0026618438
1	0x39123a7e	0.00013945435
2	0x3b4b16db	0.0030988965
3	0xbc3f2c75	-0.011668314
4	0x3b3434e2	0.002749734
5	0xbc5f0b47	-0.013613529
6	0xbbb91235	-0.0056479224
7	0x3c0d09a5	0.0086082565
8	0xbc2d0bc7	-0.01056189
9	0xbb535484	-0.003224642
10	0x3b8ec518	0.0043569915
11	0xbc1966c1	-0.009362877
12	0xbabcf78b	-0.0014417035
13	0x3b4a6c49	0.0030887297
14	0xbc72fa5f	-0.014830201
15	0xb94222aa	-0.00018514195
16	0x3b586b88	0.0033023078
17	0x3bd098e5	0.0063658827
18	0xbc7bc31b	-0.015366341
19	0x3cc91d30	0.02455005
20	0x3ac61977	0.001511379
21	0xba82b8ba	-0.0009973266
22	0x3aa54be1	0.0012611115
23	0xbc163c5b	-0.009169663
24	0x3bea9c35	0.0071597346
25	0x3bf08b91	0.0073408564
26	0xbc39f918	-0.0113508925
27	0xbb893ae0	-0.0041879267
28	0x3b8d0d81	0.0043045883
29	0x3adae962	0.0016701634
30	0xbb32464a	-0.002720254
31	0x3c230ea5	0.009952222

network.1.running_mean f4 [32]
0	0xbe4fd88e	-0.20297453
1	0xbfc6f188	-1.554246
2	0x400181a2	2.0235372
3	0x3fbe3aee	1.4861734
4	0xbf5098fb	-0.8148343
5	0x3f9625ac	1.1730247
6	0x3ed0c188	0.40772653
7	0x3e2136b2	0.15743521
8	0x3f08cbc9	0.5343595
9	0xbef91a6a	-0.48652965
10	0xbfe0c340	-1.7559586
11	0xbe2272c5	-0.15864094
12	0x3cb295f9	0.021800028
13	0x3d724d4f	0.05915576
14	0x3fa94a75	1.3225847
15	0x3fbb0f13	1.4613975
16	0xc00e2cbb	-2.2214801
17	0x3e9aa53c	0.3020419
18	0xbdde0fc3	-0.1084285
19	0xbe94d156	-0.2906596
20	0xbe917a89	-0.284138
21	0x3d7baa76	0.06144186
22	0xc02aa594	-2.666356
23	0x3fd87811	1.6911641
24	0xc050f741	-3.2650912
25	0x3f5574a0	0.8338108
26	0xbef7b2ba	-0.48378545
27	0x3f285a06	0.65762365
28	0xbf67cdb7	-0.9054827
29	0x3f33ef4d	0.7028702
30	0xbdf775f5	-0.120830454
31	0xc02c45f1	-2.691769

network.1.running_var f4 [32]
0	0x4586fdf9	4319.7466
1	0x44cf3a82	1657.8284
2	0x451692bb	2409.1707
3	0x438fff2e	287.9936
4	0x45754a5d	3924.6477
5	0x44b8a0d8	1477.0264
6	0x4453bee1	846.9825
7	0x42c9d7ba	100.92134
8	0x45a1e2d3	5180.353
9	0x4597c137	4856.152
10	0x44ab75ec	1371.685
11	0x43f78702	495.05475
12	0x45217347	2583.2048
13	0x432c7729	172.46547
14	0x45f90d3b	7969.654
15	0x437ceb27	252.91856
16	0x451b10e4	2481.0557
17	0x43df78be	446.9433
18	0x450ec708	2284.4395
19	0x42c6adba	99.33931
20	0x43769643	246.58696
21	0x42f9a14c	124.81503
22	0x43d92d9a	434.35626
23	0x448ae371	1111.1075
24	0x44f41080	1952.5156
25	0x4515e858	2398.5215
26	0x4482a906	1045.282
27	0x44076536	541.5814
28	0x44e19b5f	1804.8553
29	0x45126660	2342.3984
30	0x441791ab	606.27606
31	0x4452d701	843.35944

network.3.weight f4 [32, 32, 7, 7]
0	0x3c9a8e76	0.018866759
1	0xbb748ae8	-0.003731424
2	0x3ca0e0a3	0.019638365
3	0x3b708a11	0.0036703388
4	0xbcc0e9ba	-0.02354895
5	0x3c7197f6	0.014745703
6	0xbc1e677e	-0.009668229
7	0xbc4989c2	-0.01230091
8	0xbcaed4e6	-0.021341752
9	0xbcdb39cd	-0.02676096
10	0x3b4ca6dd	0.0031227388
11	0xbc27b227	-0.010235346
12	0x3bcbe87c	0.0062227827
13	0xbcc26459	-0.02372949
14	0x3c9c2589	0.019060867
15	0xbc820078	-0.015869364
16	0xbbcab423	-0.0061860248
17	0x3bf2d549	0.0074106795
18	0x3c4368c9	0.011926838
19	0x3ca091ca	0.019600768
20	0x3ca2eb57	0.01988761
21	0xbca4e887	-0.020130409
22	0x3bc5f6ab	0.006041368
23	0xbc0709c0	-0.008242071
24	0xba9f177c	-0.0012137736
25	0xbc82cdec	-0.015967332
26	0x3ca4a5e9	0.020098643
27	0xbcb18aff	-0.021672724
28	0x3c384766	0.011247491
29	0x3c0cc898	0.008592747
30	0x3c1b859d	0.009492305
31	0xbc549ab3	-0.012976336
32	0x3ca654c9	0.0203041
33	0x3bd20c26	0.0064101396
34	0x3aad555b	0.001322429
35	0xbcbebff5	-0.023284892
36	0x3c14c0e3	0.009079191
37	0xbb67eb90	-0.003538821
38	0xbc5168e6	-0.012781357
39	0x3c9894a6	0.018625569
40	0x3a09ba0b	0.0005253858
41	0xbc827665	-0.015925596
42	0xbc730003	-0.014831546
43	0xba10541a	-0.0005505696
44	0x3c862091	0.01637295
45	0xbbe4adc6	-0.006978723
46	0xbc4fbb0a	-0.012678871
47	0xbc06c56c	-0.00822578
48	0xbc9be135	-0.019028286
49	0x3be72fbe	0.007055252
50	0x3ca0f968	0.019650176
51	0xbcd3efe6	-0.025871228
52	0x3b1c5e68	0.0023859981
53	0x3c37490a	0.011186847
54	0x3b2add95	0.0026072015
55	0xbc3b17ce	-0.01141925
56	0x3c2aa808	0.010416038
57	0x3c5fd9e1	0.013662786
58	0x3bf48f6b	0.007463386
59	0xbbd3f8e6	-0.00646888
60	0xbc43fc74	-0.011962045
61	0x39b6dc5e	0.00034877931
62	0xbbcd783c	-0.0062704366
63	0xbbdf9ab3	-0.0068238615
64	0x3ca06acc	0.019582175
65	0x3ca82e6c	0.020529948
66	0x3a3680c4	0.00069619366
67	0xbbfeb684	-0.0077732224
68	0xb8e7af50	-0.00011047593
69	0xbb90c929	-0.0044185114
70	0x3bdc280a	0.00671864
71	0x3c0d555d	0.008626309
72	0xbca2de38	-0.019881353
73	0xbbd564ea	-0.006512274
74	0x3cc64884	0.0242045
75	0x3c014df1	0.007892118
76	0xbb4fe291	-0.0031720737
77	0xbc8ec3e7	-0.017427398
78	0xbc6a7ec1	-0.014312447
79	0xbca6b481	-0.020349743
80	0xbbdd486d	-0.0067530186
81	0x3bcb235a	0.0061992826
82	0x3c8f8d83	0.017523533
83	0x3c250773	0.010072577
84	0xbcb98668	-0.022647098
85	0xbc753f19	-0.014968657
86	0xbb20e7f8	-0.0024552327
87	0x3cc4c4ac	0.024019562
88	0x3b1adcb6	0.002363009
89	0xbc16455d	-0.009171811
90	0x3c24f602	0.010068418
91	0xbc36bed4	-0.011153895
92	0xbc807121	-0.015678944
93	0x3cb4e32a	0.022080977
94	0xbc325519	-0.010884547
95	0xbad2b09a	-0.001607436
96	0xbcbd665b	-0.023120096
97	0x3c93b54b	0.018030783
98	0x3caf79ef	0.021420447
99	0x3c5bf530	0.0134251565
100	0xbc889011	-0.016670259
101	0xbcb5a4e4	-0.022173353
102	0xbc94fcc8	-0.018186942
103	0x3cbd8bf3	0.023138022
104	0x3c8a0388	0.016847387
105	0x3cd2d735	0.025737384
106	0x3c87af4d	0.016563082
107	0x3c042675	0.0080658095
108	0x3a3375b5	0.0006845848
109	0xbc8ebcb4	-0.017423965
110	0xbcbd6adc	-0.023122244
111	0xbcd02ef2	-0.02541301
112	0x3c5db9ab	0.013533036
113	0xbc13cab7	-0.009020499
114	0xbba450ca	-0.0050145136
115	0xbc56c2e7	-0.013107992
116	0xbb0fd26b	-0.0021945487
117	0xbc91480c	-0.01773455
118	0xbc8f9c8b	-0.0175307
119	0x3c130433	0.008973169
120	0xbbc5bf24	-0.0060347486
121	0x3c85fc7c	0.016355745
122	0xbbe8f686	-0.007109466
123	0xbc76a16f	-0.015053137
124	0xbb991106	-0.004671219
125	0xbc25a5d2	-0.010110335
126	0xbbf39a7d	-0.007434188
127	0xbca8ebfe	-0.020620342
128	0x3c5869c4	0.01320881
129	0xbc894c0c	-0.016759895
130	0x3c37dea1	0.011222512
131	0x3c469328	0.012120046
132	0x3c90a867	0.017658425
133	0xbc8237a3	-0.01589567
134	0x3cad9312	0.021188293
135	0xbc2d12b2	-0.010563539
136	0x3c1e7428	0.0096712485
137	0x3cb1fb22	0.021726195
138	0xbba2f3e7	-0.004972923
139	0xb9dfa7aa	-0.00042658794
140	0xbba4361c	-0.005011333
141	0xbc9c4fb9	-0.019080983
142	0x3c732d31	0.014842317
143	0xbcd2ef82	-0.025748972
144	0x3c88349c	0.016626649
145	0x3c9a3222	0.018822733
146	0x3cc57353	0.024102842
147	0xbb83b2d0	-0.004019119
148	0xbc65e7a3	-0.014032277
149	0x3b968440	0.004593402
150	0x3c87ca2f	0.0165759
151	0xbcc957f7	-0.024578078
152	0xba3f532a	-0.0007298464
153	0xbc23eee7	-0.010005689
154	0x3b10109e	0.002198256
155	0xbc1795e1	-0.0092520425
156	0xbc0700e6	-0.00823996
157	0xbc246540	-0.0100339055
158	0xbcafafb1	-0.02144608
159	0x3c923de4	0.017851777
160	0x3c988bfe	0.018621441
161	0xb9a5789f	-0.00031561122
162	0xba536db7	-0.000806536
163	0xbc43d491	-0.011952535
164	0xbccc8da4	-0.024969883
165	0xbc9f202f	-0.019424526
166	0x3c0b8b31	0.008517073
167	0xbc681025	-0.014164005
168	0xbc9ae3df	-0.018907486
169	0xbb26820b	-0.0025407101
170	0xbc3cc5b8	-0.011521749
171	0xbc1e9d46	-0.009681052
172	0x3b015ddc	0.0019739782
173	0xbbeb57a0	-0.0071820766
174	0xbc08e213	-0.008354682
175	0xbc2ad8b1	-0.01042764
176	0xbca19e66	-0.01972885
177	0x3c6d334c	0.014477562
178	0xbc405feb	-0.011741619
179	0x3b99072c	0.0046700444
180	0xbc11db68	-0.008902408
181	0x3b04b962	0.0020252098
182	0x3cdece77	0.02719806
183	0x3c7d457f	0.015458464
184	0xbcb94695	-0.022616664
185	0x3c1ddd79	0.009635323
186	0x3ca0c654	0.01962582
187	0x3b2cafe2	0.0026349952
188	0x3c6d091a	0.014467502
189	0x3ce1c51c	0.02755981
190	0xba609cdf	-0.00085682975
191	0x3bc4054e	0.0059820777
192	0xbc97857b	-0.018496266
193	0xbbdbc2ea	-0.006706585
194	0x3c9458d2	0.01810876
195	0x3c41f512	0.0118382145
196	0xbc8cff36	-0.017211538
197	0xbc9fb288	-0.01949431
198	0xbc996aca	-0.018727679
199	0xbce21edf	-0.027602611
200	0xbca984b6	-0.020693164
201	0xbbefff88	-0.007324163
202	0x3c7f8979	0.015596741
203	0x3b5de45d	0.003385804
204	0xbc96e2af	-0.018418638
205	0xbcb1cbae	-0.021703567
206	0x3c285a1e	0.010275392
207	0xbcbb45a3	-0.022860354
208	0xbbc05b86	-0.0058702854
209	0x3c1bc6a6	0.009507811
210	0xbc2e3e81	-0.010635019
211	0x389982ff	7.3200084e-05
212	0xbb66ede1	-0.0035237002
213	0xbb646ac1	-0.003485367
214	0xbc62ab89	-0.0138348425
215	0xbcbb6cd7	-0.022879047
216	0xbcbf3842	-0.023342256
217	0xbc526cb7	-0.012843302
218	0x3cd1e444	0.02562154
219	0xbc1f4725	-0.009721552
220	0xbc783e34	-0.015151549
221	0x3c18f354	0.009335358
222	0x3bb1970d	0.005419618
223	0x3c569663	0.013097378
224	0x3c8fbffe	0.017547604
225	0x3c80f6cf	0.015742688
226	0xbcc30d75	-0.023810128
227	0x3b7183e9	0.0036852306
228	0x3c5c984a	0.013464043
229	0xba90c7d4	-0.0011045882
230	0xbc858be8	-0.016302064
231	0x3cc98ff5	0.024604777
232	0xbc122aec	-0.008921366
233	0xbc564679	-0.013078325
234	0xbcbe67c0	-0.023242831
235	0xba11e6cc	-0.00055657024
236	0x3c08db0e	0.008353008
237	0x3ba1cfdc	0.004938109
238	0x3b6dbc9f	0.0036275757
239	0xbc97511f	-0.018471299
240	0xbcab708a	-0.020927686
241	0x38041b05	3.1496416e-05
242	0x3cd0419e	0.025421914
243	0x3c7c4767	0.015397883
244	0xbc66baae	-0.014082594
245	0xbb506e69	-0.003180409
246	0xbc75bd56	-0.0149987545
247	0xbc4b8640	-0.012422144
248	0x3b80fce1	0.0039363955
249	0x3c602fc6	0.013683265
250	0x3cb0408d	0.021515155
251	0xbcb411bd	-0.021981115
252	0x3c95b35a	0.018273998
253	0xbc84a572	-0.016192172
254	0x3c25d4fa	0.010121578
255	0x3c9dc359	0.019258188

network.3.bias f4 [32]
0	0xbc9d32fe	-0.019189354
1	0xbbfb1c27	-0.007663268
2	0x3ca78e07	0.020453466
3	0xbcb50805	-0.02209855
4	0x3c92dbe2	0.017927114
5	0xbc7dd17e	-0.015491841
6	0xbca8ffc7	-0.020629777
7	0x3c3eb04b	0.011638711
8	0x3c0359c5	0.008017008
9	0x3c825b02	0.015912537
10	0x3c1d3c91	0.00959696
11	0x3c8b3ffe	0.016998287
12	0x3c2fa7de	0.010721175
13	0xbb0ff0f9	-0.00219637
14	0x3ca76795	0.020435134
15	0xbc9b6632	-0.018969629
16	0xbcce62f8	-0.025193676
17	0xbc3d704d	-0.011562419
18	0xbc8dac4b	-0.01729407
19	0x3cb249b9	0.02176367
20	0x3c494fbc	0.012287077
21	0x3cd24fd4	0.02567283
22	0xbc4848d6	-0.012224397
23	0x3cb9d7a0	0.022685826
24	0xbcbd6e12	-0.023123775
25	0xbc900897	-0.017582221
26	0x3cb56f09	0.022147672
27	0x39e16eca	0.00042997889
28	0x3b8234f8	0.0039735995
29	0xbc306acf	-0.010767653
30	0x3bb57c42	0.0055384943
31	0xbb86b04a	-0.0041103708

network.4.weight f4 [32]
0	0x3f7e43cd	0.99322206
1	0x3f801d54	1.000895
2	0x3f7fa521	0.9986134
3	0x3f804926	1.0022323
4	0x3f7ffaeb	0.99992245
5	0x3f80f185	1.0073706
6	0x3f7ff0f7	0.9997706
7	0x3f7c59b4	0.98574376
8	0x3f7f712d	0.9978207
9	0x3f80f6ca	1.0075314
10	0x3f81e7fe	1.0148923
11	0x3f7d6824	0.9898703
12	0x3f802c8f	1.0013598
13	0x3f7f5ae6	0.99748075
14	0x3f80d83e	1.0065992
15	0x3f802bef	1.0013407
16	0x3f7fdb95	0.9994443
17	0x3f7e4f98	0.993402
18	0x3f7f9ede	0.9985179
19	0x3f8038fa	1.0017388
20	0x3f7fd76b	0.99938077
21	0x3f7feba4	0.99968934
22	0x3f7fc82f	0.9991483
23	0x3f7e269b	0.9927766
24	0x3f7c01d8	0.98440313
25	0x3f80d05f	1.006359
26	0x3f81eb63	1.0149959
27	0x3f813463	1.0094112
28	0x3f7e4f0f	0.99339384
29	0x3f7e6f03	0.9938814
30	0x3f812b1d	1.0091282
31	0x3f811e69	1.0087405

network.4.bias f4 [32]
0	0xbc8260f0	-0.015915364
1	0xbb0577be	-0.0020365561
2	0xbbcb7408	-0.0062089004
3	0xbb9cab61	-0.004781172
4	0xba8f1872	-0.001091732
5	0xbb7f24fa	-0.0038931952
6	0x39def00a	0.00042521983
7	0xbcda8b30	-0.026677698
8	0xbac0b18e	-0.0014701353
9	0xbbfc49ff	-0.0076992507
10	0xba998102	-0.0011711421
11	0xbcc3209d	-0.023819262
12	0xbc117666	-0.008878326
13	0xbc117dcd	-0.008880091
14	0xbc810718	-0.015750453
15	0xbad96460	-0.00165857
16	0xbb8154b6	-0.003946866
17	0xbbd00191	-0.006347843
18	0xbc0d0cef	-0.008609041
19	0xbc078512	-0.0082714725
20	0xbc39a0c4	-0.011329833
21	0xbb570c63	-0.003281378
22	0xbbf2f0e3	-0.00741397
23	0xbcdea6fd	-0.027179236
24	0xbc3fa58c	-0.011697184
25	0xbc3b14eb	-0.011418561
26	0x3c3ad671	0.011403666
27	0x3b2027eb	0.0024437855
28	0xbc0e4fa8	-0.008685984
29	0xbc95c155	-0.018280664
30	0x3a9f2014	0.0012140297
31	0x3b16afcb	0.0022992964

network.4.running_mean f4 [32]
0	0xbeb11b02	-0.34590918
1	0x3e1cc987	0.15311252
2	0xbda418f2	-0.080125704
3	0x3f333ee4	0.7001784
4	0x3ec08c82	0.376072
5	0xbeb41dc4	-0.3517896
6	0xbf09af27	-0.53782886
7	0x3d5ad3d8	0.053424686
8	0xbec551de	-0.38539022
9	0xbef75af2	-0.48311573
10	0xbe58e9b7	-0.21182905
11	0xbe0042ca	-0.12525478
12	0xbe24a4de	-0.16078517
13	0x3f009927	0.5023369
14	0x3ed81bce	0.42208713
15	0x3ef4de4a	0.47825843
16	0x3e2ab5e3	0.16670947
17	0x3d0489fe	0.032358162
18	0x3d21b32a	0.039477505
19	0x3e9b340a	0.3031314
20	0x3e824796	0.2544524
21	0xbc50124f	-0.012699678
22	0x3e965f73	0.29369697
23	0x3f3a0794	0.72667813
24	0x3e34bf5c	0.17651123
25	0xbe631cd4	-0.22178966
26	0xbeb4fb63	-0.35348043
27	0xbce00694	-0.027346887
28	0x3eea8cce	0.4581055
29	0x3ec22211	0.37916616
30	0xbe8d144d	-0.2755455
31	0x3e900f93	0.28136882

network.4.running_var f4 [32]
0	0x3de04718	0.1095106
1	0x3dfff66d	0.12498174
2	0x3e41450e	0.18873999
3	0x3e333a81	0.17502786
4	0x3e1b3421	0.15156604
5	0x3e541730	0.2071197
6	0x3df1d3d3	0.118079804
7	0x3e17a34c	0.14808387
8	0x3e31a5b7	0.17348371
9	0x3d894f57	0.06704586
10	0x3e6ddc4d	0.2322857
11	0x3de169f1	0.11006535
12	0x3ddbf1ef	0.107395045
13	0x3e1d777b	0.1537761
14	0x3dcd26e2	0.10017182
15	0x3e3c6a60	0.18399954
16	0x3e17a214	0.14807922
17	0x3dcdf8d5	0.100572266
18	0x3e5e1246	0.21686658
19	0x3e31ec79	0.17375363
20	0x3ea1cacb	0.3160003
21	0x3e3fd463	0.18733363
22	0x3e985e18	0.29759288
23	0x3df5f355	0.120093025
24	0x3dc0fbda	0.09423037
25	0x3e129085	0.14312942
26	0x3e696e5e	0.22796008
27	0x3e2b6c62	0.16740564
28	0x3e113189	0.14179052
29	0x3df082ff	0.117437355
30	0x3dfe8e31	0.124294646
31	0x3eb440fc	0.3520583

network.6.weight f4 [32, 32, 5, 5]
0	0x3d0971f1	0.03355593
1	0x3c5aa680	0.013345361
2	0x3b530938	0.003220154
3	0xbc4a3100	-0.012340784
4	0xbc29f0b9	-0.010372334
5	0x3cb6c86c	0.022312365
6	0xbb34000a	-0.0027465844
7	0xbcc8b670	-0.024501055
8	0xbb93ecf9	-0.0045143333
9	0xba6f6932	-0.0009132802
10	0x3cf0c4be	0.029390689
11	0xbcb35e13	-0.021895444
12	0x3ab41ec7	0.0013742083
13	0xbcbe750b	-0.02324917
14	0x3cc541ac	0.024079166
15	0xbc975a7e	-0.018475767
16	0xbb1d3696	-0.0023988835
17	0x3cb4ec94	0.022085465
18	0x3cad8da9	0.021185713
19	0x3c4707e7	0.01214788
20	0x3d1a691d	0.0376979
21	0xbcd2bdad	-0.02572521
22	0xbc8cc164	-0.01718206
23	0x3d035521	0.032063607
24	0x3d11b446	0.035572313
25	0x3ccbd7c5	0.02488316
26	0xbd2256d8	-0.039633602
27	0x3accdd7f	0.0015629976
28	0x3c9ffb85	0.019529114
29	0x3c6fb571	0.014630661
30	0xbb723a6f	-0.0036961099
31	0x3cc10e6c	0.023566447
32	0x3cf67800	0.030086517
33	0x3c340dd5	0.010989626
34	0x3b7b8ac6	0.0038382276
35	0xbd1645f2	-0.0366878
36	0xbd18fc50	-0.03735
37	0x3b5f4c7f	0.0034072695
38	0xbd0eda06	-0.034875892
39	0xbc1f0b4f	-0.009707286
40	0xbc434e59	-0.011920535
41	0xbb68b474	-0.003550795
42	0xbc49c850	-0.012315825
43	0x3c9c4362	0.0190751
44	0x3cda9cce	0.026686098
45	0xbd07a3d0	-0.03311521
46	0x3cfede20	0.031111777
47	0xbcec7be8	-0.028867677
48	0xbd0fcd10	-0.035107672
49	0x3b92d96b	0.0044814846
50	0xbb63e387	-0.0034773068
51	0xbccfe2d4	-0.025376715
52	0xbca4482c	-0.020053945
53	0x3d186077	0.03720137
54	0xbcb48b3b	-0.022039047
55	0xbb23afbb	-0.002497657
56	0xbc926d93	-0.017874515
57	0x3c989450	0.018625408
58	0x3cc75828	0.024334028
59	0xbc7b976f	-0.015355929
60	0x3c0678e9	0.008207538
61	0x3adb2c50	0.001672158
62	0xbcbe89d3	-0.02325908
63	0x3c2dcd7c	0.010608073
64	0x3bead3e7	0.007166374
65	0x3cdd9583	0.027048832
66	0x3d1f89c6	0.03894975
67	0xbc237451	-0.009976462
68	0xbb96fc21	-0.004607693
69	0xbbda524a	-0.0066626417
70	0xbcb249dc	-0.021763735
71	0x3cbd1b5b	0.023084333
72	0x3caa4bec	0.020788155
73	0x3b83991d	0.0040160553
74	0x3cc27ffc	0.023742668
75	0xbbe9aa30	-0.0071308836
76	0x3c118ea1	0.008884103
77	0x3c8f71d3	0.01751033
78	0xbd0f129b	-0.034929853
79	0xbb8db04c	-0.0043239947
80	0x3c57ea34	0.013178397
81	0xbcbe0683	-0.023196464
82	0xbc7f55cd	-0.015584421
83	0x3beafb63	0.007171081
84	0xbc3d24ba	-0.011544401
85	0xbc38d83b	-0.011282022
86	0x3cb0b35a	0.021569896
87	0x3c471c70	0.012152776
88	0xbc14f7e4	-0.009092305
89	0xbd050c07	-0.032482173
90	0xbc9269e0	-0.01787275
91	0xbbb176a7	-0.005415756
92	0xbac8425c	-0.0015278566
93	0x3caf4b26	0.021398138
94	0xbb8c4094	-0.0042801592
95	0x3c1a3a78	0.009413354
96	0x3ca036da	0.019557405
97	0xbcb0d2d9	-0.021584915
98	0xbc0f8b03	-0.00876117
99	0x3c145ec7	0.0090558
100	0xbc48a0b8	-0.01224535
101	0x3c6020e5	0.013679718
102	0xbc467c11	-0.012114541
103	0xbd1af560	-0.037831664
104	0xbcc9139c	-0.024545483
105	0x3b302df8	0.0026882868
106	0xbcddada2	-0.027060334
107	0x3cf0302d	0.029319847
108	0x3bcdbdd3	0.0062787323
109	0x3ce80023	0.028320378
110	0xbbde205a	-0.006778759
111	0x3cab23d4	0.020891108
112	0xbd01ff28	-0.031737477
113	0x3c38e57f	0.011285185
114	0x3c9755f3	0.018473601
115	0x3b87caf7	0.0041440683
116	0xbc405026	-0.011737859
117	0xbcad8557	-0.021181745
118	0xbc4ff384	-0.012692336
119	0x3c633f8d	0.013870132
120	0x3b64e743	0.0034927882
121	0xbca67ab4	-0.020322181
122	0xbc9780a7	-0.018493963
123	0xbc19da11	-0.00939037
124	0x3b862aed	0.0040944726
125	0x3d0afee1	0.033934478
126	0x3ce7413e	0.028229352
127	0x3cf4200e	0.029800441
128	0xbc48f432	-0.012265252
129	0x3c098c22	0.008395227
130	0x3be96bff	0.00712347
131	0x3ca33019	0.019920396
132	0xbbdc90ea	-0.0067311423
133	0x3cae8a2b	0.021306118
134	0xbcff74f1	-0.031183692
135	0xbd34f7f2	-0.04418177
136	0x3b85a460	0.004078433
137	0x3c9193b0	0.017770618
138	0x3c28e9cb	0.010309647
139	0xbd1d2cc3	-0.038372766
140	0x3ccc0350	0.024903923
141	0xbce1d4ea	-0.027567346
142	0x3cf5b197	0.029991908
143	0xbc04a720	-0.008096486
144	0x3cef40bc	0.029205672
145	0x3c9188f8	0.017765507
146	0x3cb5f0db	0.022209575
147	0xb9aa748c	-0.0003251176
148	0xbcd04cb1	-0.025427194
149	0xbcdb9557	-0.02680461
150	0xbcde8669	-0.027163701
151	0xbc439149	-0.011936494
152	0xbbca66eb	-0.0061768196
153	0x3c52e87d	0.012872812
154	0xbcee87f5	-0.029117564
155	0xbcac6aa5	-0.021046946
156	0x3b819869	0.0039549363
157	0x3b7221d9	0.0036946444
158	0x3a044a91	0.00050465117
159	0xbcc5452b	-0.024080833
160	0xbccc1fa5	-0.024917433
161	0xbc62a390	-0.013832942
162	0xbbe7e2b2	-0.0070765847
163	0x3b045855	0.0020194252
164	0xbcfeb7ad	-0.031093443
165	0xbcc16fc4	-0.023612864
166	0x3a8ed522	0.0010897259
167	0x3d0dd898	0.034630388
168	0x3cc21b9f	0.023694811
169	0xbc54810b	-0.012970219
170	0xbce86f8e	-0.028373506
171	0x3c2ed374	0.010670532
172	0xbcd4143b	-0.025888553
173	0xbca0c556	-0.019625347
174	0x3b6d3d73	0.0036199957
175	0x3c6f806a	0.014618019
176	0xbc974fd7	-0.018470688
177	0x3a2b446d	0.00065333286
178	0xbac10f2b	-0.0014729252
179	0xbb0bbc58	-0.0021321978
180	0x3c56295c	0.013071384
181	0x3c5d1f13	0.013496178
182	0xbca3f2d5	-0.020013252
183	0xbb499b3e	-0.0030762698
184	0xbccbbd8f	-0.024870662
185	0xbc31fdb4	-0.01086371
186	0xbcb318ab	-0.021862349
187	0xbca533de	-0.020166334
188	0xbc8f11c3	-0.017464524
189	0xbbb111d9	-0.005403739
190	0x3b8879cd	0.0041649104
191	0x3ba41a77	0.0050080377
192	0x3cb1b671	0.02169344
193	0x3bf98c0b	0.0076155714
194	0x3b84e60e	0.004055745
195	0x3c6ddc48	0.014517851
196	0xbc277889	-0.010221609
197	0x3bc18078	0.0059052072
198	0x3c49b66e	0.012311561
199	0x3d11d1af	0.03560036
200	0x3cbc5feb	0.022994956
201	0xbcfac17f	-0.030609844
202	0xbb2b8207	-0.0026170032
203	0x3cc587f6	0.024112683
204	0x3c05ed6c	0.008174282
205	0xbd208fde	-0.039199702
206	0x3cb382ff	0.02191305
207	0xbd019e4a	-0.031645097
208	0xbcf05892	-0.029339109
209	0xbd0fd9fa	-0.035119988
210	0x3cc896b0	0.024485916
211	0x3cbb9bfd	0.02290153
212	0xbc9dd7c4	-0.019267924
213	0x3b394236	0.0028268225
214	0x3b93b125	0.0045072013
215	0xbd1ab16f	-0.03776687
216	0xbc97441a	-0.01846509
217	0xbc95949f	-0.018259345
218	0x3b0ee5e0	0.0021804497
219	0xbc96bcad	-0.018400514
220	0x3c88b9e1	0.016690196
221	0xbcc91d6c	-0.024550162
222	0xbbf11172	-0.007356816
223	0x3c34b78f	0.011030092
224	0x3b17b68b	0.0023149576
225	0xbb626f5f	-0.0034551246
226	0xbc91320e	-0.017724063
227	0x3cb4965c	0.022044353
228	0x3cdf988a	0.027294416
229	0x3c2da61b	0.010598685
230	0x3b90de92	0.0044210637
231	0x3d1e8926	0.038705014
232	0x3bdfda5e	0.0068314513
233	0x3a8a7080	0.0010562092
234	0xbc54ff25	-0.013000284
235	0x3cb18344	0.021669038
236	0xbc9f49b1	-0.019444318
237	0x3c52507d	0.012836573
238	0xbbe07a8a	-0.0068505453
239	0x3c9bb9e0	0.01900953
240	0x3c5aa0da	0.013344014
241	0x3d03be2a	0.032163776
242	0x3bbc6e09	0.005750422
243	0xbbda4128	-0.0066605993
244	0x3c0da8be	0.008646188
245	0xbc456e3c	-0.012050208
246	0x3c90a7dc	0.017658167
247	0xbba7ff86	-0.0051268963
248	0xbb1bc563	-0.0023768775
249	0x3d230520	0.03979981
250	0xbce8e604	-0.028429992
251	0x3c9eb440	0.01937306
252	0x3ac0428b	0.0014668269
253	0xbce68e01	-0.028143885
254	0x3c95f9d2	0.0183076
255	0xbc51197e	-0.0127624255

network.6.bias f4 [32]
0	0xbc322206	-0.01087237
1	0xbbbc8968	-0.005753685
2	0x3c6eb031	0.0145683745
3	0xbb8b21fa	-0.0042459937
4	0xbcbff7c3	-0.023433572
5	0x3cc5fc74	0.02416823
6	0xbb4e63b9	-0.0031492545
7	0x3ce5eabc	0.028066032
8	0xbd455ece	-0.048186116
9	0x3cea35db	0.028590133
10	0x3c14bf1c	0.009078767
11	0x3b451dfc	0.0030077687
12	0xbc750d0f	-0.014956727
13	0x3cb8dc94	0.022566117
14	0xbd228d61	-0.03968561
15	0xbced4139	-0.028961765
16	0x3ca12997	0.019673152
17	0x3d0961bd	0.033540476
18	0x3d11ac7b	0.03556488
19	0x3d123693	0.035696577
20	0x3b8be752	0.004269519
21	0x3ced388e	0.028957631
22	0x3ca9fbd2	0.02074996
23	0x3cf4c501	0.029879095
24	0x3d2f1d53	0.042752575
25	0x3c5aa1a6	0.013344204
26	0x3cae0dcb	0.021246811
27	0xbae55c18	-0.001749876
28	0xbcc0d170	-0.023537368
29	0xbd09982f	-0.0335924
30	0x3cebae34	0.02876959
31	0x3d241ed6	0.04006847

network.7.weight f4 [32]
0	0x3f84f5ef	1.0387553
1	0x3f87a236	1.0596378
2	0x3f853096	1.0405452
3	0x3f86dd00	1.0536194
4	0x3f8619f3	1.0476669
5	0x3f874527	1.0567979
6	0x3f877cf5	1.0585009
7	0x3f8653a3	1.0494274
8	0x3f865361	1.0494195
9	0x3f867333	1.0503906
10	0x3f8532ef	1.0406169
11	0x3f85856e	1.0431345
12	0x3f869c7c	1.0516505
13	0x3f86f2d3	1.0542854
14	0x3f870106	1.0547187
15	0x3f879389	1.0591899
16	0x3f85b573	1.0445999
17	0x3f85b510	1.0445881
18	0x3f85b775	1.0446612
19	0x3f85c0a2	1.0449412
20	0x3f85d080	1.0454254
21	0x3f87334d	1.0562531
22	0x3f862262	1.0479243
23	0x3f85e843	1.0461506
24	0x3f854090	1.0410328
25	0x3f85b30f	1.0445269
26	0x3f85b3f8	1.0445547
27	0x3f85b113	1.0444664
28	0x3f862282	1.0479281
29	0x3f853b76	1.0408771
30	0x3f859302	1.0435488
31	0x3f877b92	1.0584586

network.7.bias f4 [32]
0	0xbb074d8d	-0.002064559
1	0x3bb6172b	0.005556961
2	0x3c2fcc1e	0.010729818
3	0x3bee7cf1	0.007278078
4	0x3bdc489a	0.006722522
5	0x3c5df7f0	0.013547882
6	0x3c638152	0.013885813
7	0xbab9f304	-0.0014186804
8	0x3c6d200e	0.014472974
9	0x3c719ea2	0.014747294
10	0x3c3e1156	0.011600813
11	0x3bc775d1	0.006087043
12	0x3ce50996	0.027958672
13	0x3bc09c2d	0.0058779926
14	0x3cb985e4	0.022646852
15	0x3c842ce9	0.016134696
16	0x3cc97a27	0.02459438
17	0xba62c569	-0.0008650632
18	0x3abca0c1	0.001439117
19	0x3b28af3b	0.002573921
20	0x3c83e2b6	0.016099315
21	0x3cd002ac	0.025391899
22	0xbb62edf3	-0.0034626692
23	0x3bc13638	0.005896356
24	0xbb6ae2e3	-0.0035840801
25	0x3babe7bd	0.005246131
26	0x3b95ead4	0.004575113
27	0x3b37bfb9	0.002803786
28	0xbb0cb189	-0.0021468124
29	0x3c770a5c	0.015078153
30	0xba78d21a	-0.0009491757
31	0x3ab00c3c	0.001343138

network.7.running_mean f4 [32]
0	0x3de5be21	0.11217905
1	0x3e333552	0.17500809
2	0x3d4cf9f5	0.050043065
3	0x3d9c8419	0.07642383
4	0x3e01bbd6	0.1266931
5	0xbc09bbba	-0.008406574
6	0xbcd8838b	-0.026429912
7	0xbdf7cfbb	-0.12100168
8	0xbe4cec12	-0.20011929
9	0x3e2a0193	0.16602163
10	0x3d39026d	0.04516833
11	0x3e6178b3	0.220187
12	0xbced4f7f	-0.02896857
13	0x3e3ad1c8	0.18244088
14	0xbc164fce	-0.0091743
15	0x3da539ff	0.080677025
16	0x3d81b947	0.06334167
17	0x3e262c63	0.1622787
18	0x3e4fa01d	0.20275922
19	0x3e12e27e	0.14344212
20	0x3da7de31	0.081966765
21	0x3d434cfa	0.047680832
22	0x3e05934e	0.13044474
23	0x3e81a008	0.25317407
24	0x3dc0abc5	0.094077624
25	0x3dab533f	0.08365487
26	0x3ca55bb2	0.020185325
27	0xbe1014db	-0.14070456
28	0x3d69136a	0.05690328
29	0xbd7b4801	-0.061347965
30	0x3db6fe2e	0.089352
31	0x3e6de996	0.23233637

network.7.running_var f4 [32]
0	0x3d85f7a6	0.06541376
1	0x3d77d5f8	0.06050679
2	0x3dac6665	0.08417968
3	0x3e08f024	0.13372856
4	0x3df5fe97	0.1201145
5	0x3da9a0b3	0.08282604
6	0x3dd92c70	0.10604179
7	0x3d5e1214	0.05421646
8	0x3d9ab9c2	0.07554962
9	0x3da1e3e2	0.07904793
10	0x3d799317	0.06093129
11	0x3d802eb6	0.062589094
12	0x3dff084c	0.124527544
13	0x3d89cc8b	0.067284666
14	0x3d8ea594	0.06965175
15	0x3db4d3db	0.08829471
16	0x3d9c897d	0.07643411
17	0x3d849a47	0.064747386
18	0x3d9fe46a	0.078072384
19	0x3d95dc0f	0.073173635
20	0x3d58a73e	0.05289387
21	0x3da23545	0.079203166
22	0x3d59fdfc	0.053220734
23	0x3d7d9a29	0.061914597
24	0x3dba3666	0.09092407
25	0x3dd39b37	0.10332339
26	0x3d8bf27a	0.06833358
27	0x3d6f8e0e	0.058485083
28	0x3d9cd8de	0.07658552
29	0x3d91507c	0.07095429
30	0x3d50cd19	0.050976846
31	0x3d88d35d	0.06680939

network.10.weight f4 [32, 32, 3, 3]
0	0xbcb029df	-0.02150434
1	0xbc3b5ea2	-0.011436136
2	0x3ce30cc8	0.027716056
3	0x3d58999a	0.05288086
4	0xba826595	-0.0009948487
5	0x3cb3ecc8	0.021963492
6	0x3d9a38ad	0.07530341
7	0xbd3fecb8	-0.046856612
8	0x3d86beaf	0.06579339
9	0x3d3064f4	0.043065026
10	0xbc79ea25	-0.015253578
11	0x3d6c080c	0.05762486
12	0x3d8f9341	0.07010508
13	0x3d696c3c	0.056987986
14	0xbd1c799d	-0.038201917
15	0x3ba9ef4c	0.005185997
16	0xbbd0fdd3	-0.0063779145
17	0xbbc1b342	-0.005911262
18	0x3d44899d	0.0479828
19	0xbd6cc2a1	-0.0578028
20	0xbcb7db2b	-0.022443375
21	0xbd5ba7a9	-0.05362669
22	0x3c5d95bd	0.01352447
23	0x3b64ad8f	0.0034893488
24	0x3d3f399d	0.046685804
25	0xbab0f874	-0.0013501779
26	0x3d2e9bc0	0.042629004
27	0xbd06da97	-0.032923307
28	0x3cf596b6	0.029979091
29	0x3d0cfcd1	0.034420792
30	0x3a1439ea	0.0005654382
31	0x3d18006e	0.037109785
32	0xbd3a6697	-0.045507994
33	0x3d4184ac	0.047245666
34	0x3d5b6521	0.05356324
35	0xbd3339d7	-0.043756332
36	0xbd6afbee	-0.057369165
37	0xbd002434	-0.031284526
38	0xbd804e85	-0.062649764
39	0x3cb44592	0.02200583
40	0x3cbd9f59	0.023147272
41	0x3d942726	0.072340295
42	0xbb85d4ad	-0.004084191
43	0x3b134910	0.0022473969
44	0x3cf01bf2	0.0293102
45	0xbcc749a4	-0.024327107
46	0x3d2709d0	0.040780842
47	0x3c19ae3c	0.00937992
48	0x3d863c3a	0.06554456
49	0x3d8082c5	0.06274942
50	0x3d105f57	0.035247173
51	0x3cdca70c	0.026935123
52	0x3d1fc00d	0.039001513
53	0x3b376a1d	0.0027986832
54	0x3d7b77b2	0.061393447
55	0x3d4cd600	0.050008774
56	0x3d5f59ba	0.05452893
57	0x3d83c782	0.064345375
58	0x3d6c4769	0.05768529
59	0x3c4a3abd	0.012343106
60	0x3d351c1b	0.044216257
61	0x3cc7c9d2	0.024388228
62	0xbd4c5a6f	-0.04989093
63	0xbc2f2ec8	-0.010692306
64	0x3d08ae67	0.033369448
65	0xbd517502	-0.051136978
66	0x3c870d15	0.01648573
67	0xbcc704d4	-0.024294294
68	0xbc21953a	-0.009862239
69	0xbd67839d	-0.056522
70	0xbd2156f8	-0.03938958
71	0xbb5672c5	-0.0032722217
72	0x3d4d23bb	0.050082903
73	0x3d137bd3	0.03600676
74	0x3d3dbd42	0.04632307
75	0xbd5cec69	-0.053936396
76	0x3d5a731c	0.053332433
77	0xbd058f77	-0.03260752
78	0x3c823a17	0.01589684
79	0xbd18b4d5	-0.03728183
80	0xbd8f94c8	-0.070108
81	0x3d35e505	0.044407863
82	0x3d12eec4	0.035872236
83	0x3d9171b3	0.071017645
84	0x3d4031d1	0.04692251
85	0x3d769c02	0.060207374
86	0x3bc8faa6	0.0061333952
87	0x3d0cd932	0.03438682
88	0x3d27f455	0.041004498
89	0xbd5a7a4b	-0.053339284
90	0xbbb4954c	-0.0055109616
91	0xbbd899af	-0.0066101174
92	0x3ce31731	0.02772102
93	0xbda2ca9a	-0.079487994
94	0x3c8bd570	0.017069548
95	0xbd299fad	-0.041412044
96	0xbc2b4120	-0.010452539
97	0xbcdf82e6	-0.027284097
98	0xbd031e3a	-0.03201125
99	0x3d10525e	0.0352348
100	0xbc97cbef	-0.01852986
101	0xbcbc7a06	-0.023007404
102	0xbb341cae	-0.0027482915
103	0xbcc5a35f	-0.024125753
104	0xbc728f89	-0.014804729
105	0x3be29fc5	0.0069160187
106	0x3d8d6a04	0.069049865
107	0x3d477c42	0.048702486
108	0xbd8d96f5	-0.069135584
109	0xbd4d5ebe	-0.05013918
110	0xbd40598c	-0.0469604
111	0xbca9038a	-0.02063157
112	0xbd52b423	-0.051441323
113	0x3cdc4671	0.026889058
114	0xbb44a1e3	-0.0030003719
115	0xbd23b685	-0.039968986
116	0xbc93ffd1	-0.018066319
117	0x3d41ecee	0.047345094
118	0xbbb94720	-0.0056542307
119	0xbd39e5eb	-0.045385282
120	0x3ce2dc98	0.027693078
121	0x3aef5032	0.0018258153
122	0x3b875391	0.004129835
123	0x3d8f3a56	0.069935486
124	0x3d4de01c	0.050262555
125	0x3d8dc878	0.06923002
126	0x3d64058d	0.055669356
127	0xbd04717f	-0.0323348
128	0x3d0c9447	0.034321096
129	0x3bdb9804	0.0067014713
130	0x3d73a637	0.059484687
131	0xbc7f2eef	-0.015575155
132	0xbd3fa32c	-0.046786472
133	0x3d11d6b6	0.035605155
134	0xbc802aef	-0.015645472
135	0xbbde78e0	-0.0067893118
136	0x3bb92f18	0.005651366
137	0xbc42e2ac	-0.011894863
138	0x3cf2d3f6	0.029642086
139	0x3c2c3b4d	0.010512185
140	0xbba0a573	-0.0049025356
141	0xbd092d62	-0.033490546
142	0x3d8e35f0	0.069438815
143	0xbd1a00a5	-0.03759827
144	0xbb83922a	-0.004015227
145	0xbd0c4cc7	-0.034252908
146	0xbc94efa9	-0.018180685
147	0xbcbdfc32	-0.023191545
148	0x3b92ec06	0.0044837026
149	0xba1318dd	-0.000561131
150	0xbbf4719a	-0.0074598314
151	0x3cca4f27	0.024695946
152	0xbb61ab5f	-0.003443442
153	0xbc2b73ac	-0.01046459
154	0xbbf5bdf7	-0.007499452
155	0x3ac08dbb	0.0014690676
156	0x3d0afb22	0.033930905
157	0x3cc3f76d	0.023921693
158	0xbd295b2e	-0.04134672
159	0x3caebec1	0.021331193
160	0xbca5bc2d	-0.02023133
161	0xbcb6ba31	-0.02230558
162	0x3c4f941d	0.01266959
163	0xbd55ea6b	-0.05222551
164	0xbcd66219	-0.026169823
165	0x3d0a64c2	0.033787496
166	0x3d5bc4f7	0.053654637
167	0xbd19bf42	-0.037535913
168	0xbd59d2bb	-0.053179484
169	0xbd39bcfc	-0.045346245
170	0x3c726256	0.014793953
171	0xbd780937	-0.060555663
172	0xbced7f28	-0.028991297
173	0xbd76b3fd	-0.060230244
174	0x3d44a3d7	0.048007812
175	0xbd5aca97	-0.05341586
176	0x3bf81d80	0.007571876
177	0xbc9e4c42	-0.019323472
178	0x3c266dd4	0.010158021
179	0xbc1137a2	-0.008863362
180	0x3d50891e	0.050912015
181	0xbd5001da	-0.050783016
182	0x3d308257	0.04309305
183	0xbda735d4	-0.08164564
184	0xbce35e49	-0.02775492
185	0xbd2741aa	-0.040834107
186	0xbda498fa	-0.080369905
187	0x3baa2a7a	0.005193052
188	0xbd29e781	-0.041480545
189	0x3d39caf3	0.045359563
190	0xbd14f94f	-0.03637057
191	0xbd63fb1a	-0.05565939
192	0xbd85f394	-0.065405995
193	0xbccd3e7b	-0.025054207
194	0xbd735ebc	-0.059416518
195	0xbd5d4909	-0.05402473
196	0x3d277360	0.040881515
197	0xbc6d8a1b	-0.014498259
198	0x3d29d170	0.0414595
199	0x3c3323e8	0.010933854
200	0xbb75fe08	-0.0037535448
201	0xbc4689e3	-0.012117836
202	0x3d5786fd	0.05261897
203	0x3cf6c372	0.030122492
204	0xbc0e6d3a	-0.008693034
205	0x3d6d0583	0.057866585
206	0xbc66d860	-0.014089674
207	0xbc8b991a	-0.017040778
208	0x3d3bcc36	0.045849048
209	0xbc8c7509	-0.01714565
210	0x3d8a4ae0	0.067525625
211	0x3b22d566	0.0024846434
212	0xbd3a4a88	-0.045481235
213	0x3ba48e24	0.0050218273
214	0x3cc83bfe	0.024442669
215	0xbc93fec5	-0.01806582
216	0x3cd39aef	0.025830714
217	0x3d7cbf88	0.061706096
218	0xbcb3cfb4	-0.021949627
219	0xbccfdf82	-0.025375132
220	0x3d69d9a7	0.057092335
221	0x3d0909c2	0.03345657
222	0xbca59871	-0.020214291
223	0x3c19a7a0	0.009378344
224	0x3cb5a9ad	0.022175634
225	0x3d0d65a6	0.034520768
226	0xbcd2b001	-0.02571869
227	0xbcd4a190	-0.025955945
228	0x3c1fa420	0.00974372
229	0xbc397647	-0.011319703
230	0xbc504250	-0.012711123
231	0x3c444559	0.011979424
232	0x3cad609c	0.021164231
233	0x39ae53ee	0.000332504
234	0xbd3a3430	-0.045459926
235	0x3d732641	0.059362654
236	0xbc6422a6	-0.013924276
237	0x3b0ae8be	0.0021195854
238	0x3c0f0aed	0.008730632
239	0x3c74cafe	0.014940975
240	0x3cda77c8	0.026668444
241	0x3cfc7cc8	0.03082122
242	0xbbbbb542	-0.0057283947
243	0xbd532db0	-0.051557243
244	0x3d39942e	0.04530733
245	0x3d317585	0.043324966
246	0x3d4223be	0.047397368
247	0xbc085f2d	-0.008323473
248	0x3b4685cb	0.003029215
249	0x3cdaa417	0.026689572
250	0x3d47bc72	0.0487637
251	0xbcd16065	-0.02555866
252	0x3d3435f5	0.04399677
253	0x3d3c9e5c	0.04604946
254	0xba20dbfe	-0.0006136297
255	0x3d05edba	0.032697417

network.10.bias f4 [32]
0	0x3d55d454	0.052204445
1	0xbbfbdd80	-0.007686317
2	0x3d3d33f8	0.04619214
3	0x3c534cb3	0.0128967045
4	0xbd5d87a4	-0.054084435
5	0x3d3156ac	0.043295547
6	0xbd568fff	-0.05238342
7	0x3ce31845	0.027721534
8	0xbd549302	-0.05189801
9	0x3d52f53f	0.051503416
10	0x3d038272	0.032106824
11	0xbb17022a	-0.0023042061
12	0xbd382daa	-0.044965424
13	0x3d655e55	0.055998165
14	0x3c058af3	0.008150804
15	0xbcfbb599	-0.030726241
16	0x3cd9774e	0.026546147
17	0x3d7f708a	0.062363185
18	0x3d815cc8	0.06316525
19	0xbd1f57a2	-0.038901933
20	0xbb7ff639	-0.0039056672
21	0x3cece87d	0.028919453
22	0xbd853756	-0.06504695
23	0x3cfce898	0.030872628
24	0x3d5bdf69	0.053679857
25	0xbd2dbaf5	-0.042414624
26	0x3d48a4ad	0.048985172
27	0xbd4927ee	-0.049110346
28	0xbd4ac676	-0.049505673
29	0xbc50446a	-0.012711624
30	0x3b8aca69	0.004235555
31	0xbca79d40	-0.020460725

network.13.weight f4 [8, 32, 3, 9]
0	0xbc9653db	-0.018350532
1	0xbd17788c	-0.036980197
2	0xbc038c09	-0.008028992
3	0x3cd14680	0.025546312
4	0x3ce5f304	0.02806998
5	0x3cbd7bb8	0.023130283
6	0x3c8d1c98	0.017225549
7	0x3c10799f	0.008818059
8	0x3c592f84	0.0132559575
9	0xbc201e59	-0.00977286
10	0x3c860b6d	0.01636287
11	0x3bbc5f41	0.00574866
12	0x3cff8526	0.03119142
13	0xbb28cbe6	-0.0025756299
14	0xbc04b3fa	-0.00809955
15	0x3d08dd29	0.03341404
16	0x3d0ad76f	0.03389686
17	0xbc40c130	-0.0117648095
18	0x3a8454a2	0.0010096023
19	0x3c637c94	0.013884682
20	0xbd42ac67	-0.047527697
21	0xbd117405	-0.035511035
22	0xbdb87fed	-0.09008775
23	0xbda933e7	-0.08261853
24	0xbd1184e9	-0.035527144
25	0xbc6914ea	-0.014226178
26	0xbce90d27	-0.028448654
27	0x3c537e5f	0.012908547
28	0x39d1f9fe	0.00040049845
29	0xbbab52f6	-0.0052283956
30	0x3d20d946	0.039269708
31	0x3d00e11a	0.031464674
32	0x3bcdced6	0.0062807603
33	0x3d0a881b	0.033821207
34	0x3cbf9e38	0.023390874
35	0x3aa83b95	0.001283514
36	0xbcb76454	-0.022386707
37	0xba4dfbd8	-0.0007857657
38	0x3c7f0875	0.015565981
39	0xbcde2f4e	-0.027122166
40	0x3ce49286	0.0279019
41	0x3cafde5e	0.021468338
42	0xbceea382	-0.029130701
43	0xbba02200	-0.0048868656
44	0x3c94cc9a	0.018163968
45	0xbc6fcaa7	-0.014635718
46	0xbcc14df7	-0.023596747
47	0xbac6a01a	-0.0015153915
48	0xbce6b15a	-0.02816074
49	0xbd13a0a5	-0.036041874
50	0xbcafb2ad	-0.021447504
51	0xbd8b1c6b	-0.0679253
52	0xbd941500	-0.07230568
53	0xbd3ddce6	-0.046353243
54	0xbd245619	-0.04012117
55	0x3c198fd2	0.009372668
56	0xbcacf996	-0.021115106
57	0x3c54e17b	0.012993212
58	0xbc3f2d53	-0.011668521
59	0xbc70eada	-0.0147044305
60	0x3cd5fa70	0.026120394
61	0xbcff0a83	-0.031132942
62	0xbae3aa63	-0.0017369505
63	0xbd198d9d	-0.03748857
64	0xbd043a2e	-0.032282047
65	0xbabb1fcf	-0.0014276447
66	0xbab0b742	-0.001348235
67	0xbac939df	-0.001535233
68	0x3cf6ec65	0.030142019
69	0x394aaf56	0.00019329539
70	0x3c2bf8df	0.010496347
71	0x3a32f21c	0.0006826238
72	0xbc61dedb	-0.013786043
73	0xbd26ee81	-0.0407548
74	0xbc5c80ed	-0.013458473
75	0xbc527b6c	-0.012846809
76	0x3d1fbc0c	0.038997695
77	0x3d4863f6	0.048923455
78	0x3cbda91a	0.023151923
79	0x3d0bbf6f	0.034118112
80	0xbc4dbf9b	-0.012557889
81	0x3ce8249f	0.028337775
82	0x3c816b4f	0.015798239
83	0x3bb5172f	0.0055264453
84	0x3bc36bfc	0.0059638005
85	0x3b347834	0.0027537467
86	0x3c04cd30	0.008105561
87	0xbcb6881f	-0.022281704
88	0x3a815c47	0.000986942
89	0xbc8be6ef	-0.017077891
90	0x3cdf421c	0.027253203
91	0x3d2574aa	0.040394463
92	0x3d0f2f4b	0.03495721
93	0xbc9a7d3e	-0.018858548
94	0xbd2df4cb	-0.04246978
95	0xbcb9b9d1	-0.022671612
96	0xbb894bdc	-0.0041899513
97	0x3cc4415d	0.023956949
98	0xbc8b6f4b	-0.017020842
99	0xbc8368a4	-0.016041107
100	0x3b81e78e	0.003964371
101	0x3c79ecc9	0.015254208
102	0x3c9b6bee	0.018972363
103	0x3d046903	0.03232671
104	0x3b03dc08	0.0020120163
105	0xbd422660	-0.04739988
106	0x3c6239e3	0.013807747
107	0x3b30fb28	0.002700517
108	0xbd33e972	-0.043923803
109	0xbd0138cd	-0.03154831
110	0xbbe1f27e	-0.0068953624
111	0xbc1ae8fd	-0.009454963
112	0xbc021518	-0.007939599
113	0xbad8ba7e	-0.0016535071
114	0x3cac2abe	0.021016475
115	0x3bc3156f	0.005953483
116	0x3b807b55	0.0039209523
117	0xbcbc4baf	-0.022985307
118	0x3c3faa32	0.011698293
119	0x3c82a69d	0.015948588
120	0x3cb34f01	0.021888258
121	0x3c8024c3	0.01564253
122	0xbcb51926	-0.022106718
123	0x3c071d46	0.008246725
124	0x3c6b719b	0.014370347
125	0x3c1b34e8	0.009473063
126	0x3ca9cfc0	0.020728946
127	0xbd15b586	-0.036550067
128	0xbcc0c171	-0.02352974
129	0x3b853ee8	0.004066337
130	0x3d14cb1c	0.036326513
131	0x3d20498e	0.039132647
132	0x3b360729	0.0027775264
133	0xbc7fc683	-0.015611294
134	0x3bd5ba45	0.006522449
135	0x3c97f241	0.018548133
136	0xbbb21695	-0.005434821
137	0xbd54cc78	-0.05195281
138	0xbc19bff4	-0.009384144
139	0xbd9e4cc2	-0.07729484
140	0xbd959b3d	-0.07305
141	0xbba0a4dc	-0.0049024653
142	0x3b3a83bb	0.0028459865
143	0x3bd8c63d	0.0066154287
144	0x3ca5735e	0.020196613
145	0x3bf4000b	0.007446294
146	0xbc328c3d	-0.010897693
147	0xbbf8eff0	-0.007596962
148	0x3b1aed21	0.0023639875
149	0xbc8a6cc1	-0.016897561
150	0xbd1ce3ae	-0.03830307
151	0x3a945499	0.0011316716
152	0xbcfe66e5	-0.031054923
153	0xbb8112ed	-0.0039390237
154	0xbbd564f1	-0.0065122773
155	0xbc95293e	-0.018208142
156	0x3c5da11f	0.013527184
157	0x3b62573f	0.0034536866
158	0xbd093d4d	-0.033505727
159	0x3be74c3e	0.0070586493
160	0x3b0d50fe	0.0021563168
161	0xbc4e39dd	-0.012587038
162	0xbd0c9b08	-0.034327537
163	0xbca7ff34	-0.020507433
164	0xbce2fe80	-0.027709246
165	0x3b95666d	0.0045593292
166	0x3cf1bb7e	0.029508349
167	0x3cf572d2	0.029961977
168	0xbcf988b8	-0.0304607
169	0xbb5b515d	-0.0033465244
170	0x3c57211e	0.013130454
171	0x3c97e76f	0.018542973
172	0xbce884d2	-0.028383646
173	0x3c0224f8	0.007943384
174	0xbc56b6a4	-0.013105068
175	0x3c778fd1	0.015109972
176	0xba6ff816	-0.0009154094
177	0x3cd27966	0.025692653
178	0x3b0a41e0	0.0021096393
179	0x3c371037	0.0111732995
180	0x3c535626	0.012898957
181	0xbbd3a498	-0.00645883
182	0xbd035c75	-0.032070596
183	0xbd2eb5e1	-0.042653922
184	0x3c340e8d	0.010989797
185	0xbcd48ee6	-0.025947046
186	0xbc47d2ba	-0.012196237
187	0xbd839f8c	-0.064269155
188	0xbd358824	-0.044319287
189	0xbca7811c	-0.020447306
190	0x3c72d80a	0.014822016
191	0xbd0cbaef	-0.03435796
192	0xbb73f691	-0.0037225822
193	0xbcad4f3c	-0.021155946
194	0x3ca5d1a9	0.020241575
195	0x3cea8b36	0.028630834
196	0x3b56d763	0.003278219
197	0xbcd502e5	-0.026002357
198	0x3c5b9992	0.013403313
199	0xbc92b60c	-0.017909072
200	0x3c839c27	0.01606567
201	0x3c91679d	0.017749602
202	0x3b8285e5	0.0039832466
203	0xbc46441a	-0.012101198
204	0x3ca84d8c	0.02054479
205	0xbba9eaa3	-0.0051854416
206	0x3c8d2892	0.01723126
207	0x3bc3b5a6	0.005972582
208	0x3cdceb18	0.02696757
209	0x3c840342	0.016114835
210	0xbcac5d32	-0.021040533
211	0x3a84e977	0.0010140379
212	0xbaf684c3	-0.0018807877
213	0xbd225368	-0.039630324
214	0xbc9d6e58	-0.019217655
215	0xbcab925e	-0.020943817
216	0x3bbf8937	0.0058452147
217	0xbcacfc2b	-0.021116337
218	0xbcf0797c	-0.029354803
219	0xbcb383a8	-0.021913365
220	0x3d438735	0.047736365
221	0x3cdc4708	0.02688934
222	0x3c769f70	0.015052661
223	0x3cb7a8e2	0.022419397
224	0xbc8f0d06	-0.017462265
225	0x3c0dd894	0.008657593
226	0x3c4ef62c	0.012631934
227	0xbc579284	-0.013157491
228	0x3d1519b0	0.03640145
229	0x3d0b39b6	0.033990584
230	0x3b2a4884	0.0025983164
231	0x3ce927c2	0.02846134
232	0x3cb4862a	0.02203663
233	0xbd32dfdc	-0.04367052
234	0xbca8aae5	-0.020589301
235	0x3ac172df	0.0014758966
236	0x3ba8ff1c	0.0051573645
237	0xba90970b	-0.0011031342
238	0x3c09f579	0.008420342
239	0x3d25d2d2	0.040484257
240	0x3cfbb931	0.030727955
241	0x3d12db2f	0.03585356
242	0xbb61e3d2	-0.0034468067
243	0xbbca8d26	-0.006181377
244	0x3cdf91a4	0.027291127
245	0x3ce4b10b	0.027916452
246	0xbc70df09	-0.014701613
247	0xbd18be88	-0.03729108
248	0x386faba5	5.7141897e-05
249	0x3cad6692	0.021167073
250	0x3d010ed2	0.031508274
251	0xbcb49b39	-0.022046672
252	0xbd062864	-0.032753363
253	0xbc91c3bc	-0.017793529
254	0xbc119cd5	-0.008887489
255	0x3b79ec1d	0.003813512

network.13.bias f4 [8]
0	0xbc557330	-0.013027951
1	0xbc37cac8	-0.01121778
2	0xbba2b5e5	-0.004965531
3	0xbcf5747c	-0.02996277
4	0x3beea568	0.0072829016
5	0x3cb29b57	0.021802587
6	0xbcd86f27	-0.026420189
7	0x3b83580c	0.0040082987
